node {
  name: "Const"
  op: "Const"
  device: "/replica:0/task:0/device:CPU:0"
  attr {
    key: "_output_shapes"
    value {
      list {
        shape {
          dim {
            size: 9255
          }
        }
      }
    }
  }
  attr {
    key: "dtype"
    value {
      type: DT_STRING
    }
  }
  attr {
    key: "value"
    value {
      tensor {
        dtype: DT_STRING
        tensor_shape {
          dim {
            size: 9255
          }
        }
        string_val: "[PAD]"
        string_val: "[UNK]"
        string_val: "want"
        string_val: "to"
        string_val: "bring"
        string_val: "antoinette"
        string_val: "christine"
        string_val: "and"
        string_val: "caitlin"
        string_val: "get"
        string_val: "bread"
        string_val: "at"
        string_val: "restaurant"
        string_val: "in"
        string_val: "faraway"
        string_val: "connecticut"
        string_val: "book"
        string_val: "reservation"
        string_val: "for"
        string_val: "bar"
        string_val: "serving"
        string_val: "corn"
        string_val: "relish"
        string_val: "show"
        string_val: "the"
        string_val: "ancient"
        string_val: "art"
        string_val: "of"
        string_val: "war"
        string_val: "picture"
        string_val: "bullfeathers"
        string_val: "spot"
        string_val: "six"
        string_val: "on"
        string_val: "october"
        string_val: "fifth"
        string_val: "mineola"
        string_val: "give"
        string_val: "main"
        string_val: "travelled"
        string_val: "roads"
        string_val: "series"
        string_val: "points"
        string_val: "out"
        string_val: "please"
        string_val: "me"
        string_val: "seating"
        string_val: "tavern"
        string_val: "red"
        string_val: "lick"
        string_val: "michigan"
        string_val: "look"
        string_val: "movie"
        string_val: "darkness"
        string_val: "come"
        string_val: "alive"
        string_val: "is"
        string_val: "there"
        string_val: "blizzard"
        string_val: "coming"
        string_val: "tomorrow"
        string_val: "methuen"
        string_val: "uganda"
        string_val: "my"
        string_val: "timeless"
        string_val: "love"
        string_val: "songs"
        string_val: "playlist"
        string_val: "should"
        string_val: "include"
        string_val: "viderunt"
        string_val: "omnes"
        string_val: "film"
        string_val: "goodrich"
        string_val: "quality"
        string_val: "theaters"
        string_val: "playing"
        string_val: "12"
        string_val: "26"
        string_val: "am"
        string_val: "weather"
        string_val: "knierim"
        string_val: "kansas"
        string_val: "twelve"
        string_val: "weeks"
        string_val: "half"
        string_val: "from"
        string_val: "now"
        string_val: "find"
        string_val: "framing"
        string_val: "early"
        string_val: "middle"
        string_val: "ages"
        string_val: "game"
        string_val: "what"
        string_val: "films"
        string_val: "are"
        string_val: "showing"
        string_val: "neighborhood"
        string_val: "forecast"
        string_val: "latvia"
        string_val: "strasburg"
        string_val: "rate"
        string_val: "hard"
        string_val: "life"
        string_val: "stars"
        string_val: "will"
        string_val: "be"
        string_val: "snowstorm"
        string_val: "eight"
        string_val: "months"
        string_val: "chattahoochee"
        string_val: "river"
        string_val: "national"
        string_val: "recreation"
        string_val: "area"
        string_val: "add"
        string_val: "list"
        string_val: "rush"
        string_val: "instrumentals"
        string_val: "this"
        string_val: "lady"
        string_val: "antebellum"
        string_val: "can"
        string_val: "you"
        string_val: "let"
        string_val: "know"
        string_val: "where"
        string_val: "watch"
        string_val: "nest"
        string_val: "ricardo"
        string_val: "villalobos"
        string_val: "track"
        string_val: "under"
        string_val: "surface"
        string_val: "schedules"
        string_val: "table"
        string_val: "cayman"
        string_val: "islands"
        string_val: "two"
        string_val: "hundred"
        string_val: "ninety"
        string_val: "days"
        string_val: "pub"
        string_val: "with"
        string_val: "internet"
        string_val: "people"
        string_val: "song"
        string_val: "top"
        string_val: "100"
        string_val: "indie"
        string_val: "tracks"
        string_val: "spotify"
        string_val: "far"
        string_val: "away"
        string_val: "estonia"
        string_val: "when"
        string_val: "spyforce"
        string_val: "it"
        string_val: "windy"
        string_val: "ocean"
        string_val: "breeze"
        string_val: "park"
        string_val: "hotter"
        string_val: "around"
        string_val: "elevenses"
        string_val: "ks"
        string_val: "animated"
        string_val: "movies"
        string_val: "closest"
        string_val: "theatre"
        string_val: "local"
        string_val: "times"
        string_val: "current"
        string_val: "album"
        string_val: "nearby"
        string_val: "put"
        string_val: "live"
        string_val: "rare"
        string_val: "into"
        string_val: "dancehall"
        string_val: "official"
        string_val: "world"
        string_val: "warcraft"
        string_val: "tides"
        string_val: "turbulent"
        string_val: "term"
        string_val: "tyke"
        string_val: "tiler"
        string_val: "creative"
        string_val: "elements"
        string_val: "remixed"
        string_val: "need"
        string_val: "san"
        string_val: "martin"
        string_val: "search"
        string_val: "frog"
        string_val: "birdsong"
        string_val: "jovanotti"
        string_val: "punk"
        string_val: "espa\303\261ol"
        string_val: "creativity"
        string_val: "everything"
        string_val: "once"
        string_val: "work"
        string_val: "titled"
        string_val: "perfect"
        string_val: "gentleman"
        string_val: "which"
        string_val: "jacob"
        string_val: "wirth"
        string_val: "tell"
        string_val: "close"
        string_val: "by"
        string_val: "brown"
        string_val: "county"
        string_val: "state"
        string_val: "meal"
        string_val: "time"
        string_val: "malaysia"
        string_val: "zero"
        string_val: "rating"
        string_val: "deed"
        string_val: "paksenarrion"
        string_val: "beat"
        string_val: "devil"
        string_val: "mann"
        string_val: "theatres"
        string_val: "novel"
        string_val: "see"
        string_val: "schedule"
        string_val: "north"
        string_val: "american"
        string_val: "cinemas"
        string_val: "marta"
        string_val: "endorphin"
        string_val: "giving"
        string_val: "trailer"
        string_val: "real"
        string_val: "men"
        string_val: "cry"
        string_val: "called"
        string_val: "greatest"
        string_val: "year"
        string_val: "indietronic"
        string_val: "needs"
        string_val: "until"
        string_val: "end"
        string_val: "added"
        string_val: "clowns"
        string_val: "nearest"
        string_val: "cinema"
        string_val: "burger"
        string_val: "joint"
        string_val: "choate"
        string_val: "july"
        string_val: "16th"
        string_val: "2022"
        string_val: "steve"
        string_val: "albini"
        string_val: "psychedelic"
        string_val: "rock"
        string_val: "fifty"
        string_val: "years"
        string_val: "hunter"
        string_val: "trapper"
        string_val: "video"
        string_val: "tomb"
        string_val: "scott"
        string_val: "putesky"
        string_val: "concentraci\303\263n"
        string_val: "do"
        string_val: "build"
        string_val: "snowman"
        string_val: "hip"
        string_val: "hop"
        string_val: "2017"
        string_val: "new"
        string_val: "school"
        string_val: "pesterminator"
        string_val: "western"
        string_val: "exterminator"
        string_val: "maschi"
        string_val: "altri"
        string_val: "john"
        string_val: "williams"
        string_val: "listen"
        string_val: "dragon"
        string_val: "ball"
        string_val: "music"
        string_val: "collection"
        string_val: "kitchin"
        string_val: "13th"
        string_val: "2039"
        string_val: "photograph"
        string_val: "wish"
        string_val: "one"
        string_val: "judging"
        string_val: "house"
        string_val: "george"
        string_val: "washington"
        string_val: "slept"
        string_val: "here"
        string_val: "gave"
        string_val: "wondering"
        string_val: "peters"
        string_val: "baby"
        string_val: "monique"
        string_val: "stewart"
        string_val: "arlene"
        string_val: "jami"
        string_val: "would"
        string_val: "like"
        string_val: "mar"
        string_val: "2020"
        string_val: "that"
        string_val: "broadway"
        string_val: "lafayette"
        string_val: "st"
        string_val: "daughters"
        string_val: "late"
        string_val: "great"
        string_val: "townes"
        string_val: "van"
        string_val: "zandt"
        string_val: "another"
        string_val: "tune"
        string_val: "soft"
        string_val: "tv"
        string_val: "all"
        string_val: "neighbourhood"
        string_val: "play"
        string_val: "lineage"
        string_val: "grace"
        string_val: "executive"
        string_val: "power"
        string_val: "four"
        string_val: "best"
        string_val: "essay"
        string_val: "secret"
        string_val: "weapon"
        string_val: "nine"
        string_val: "pm"
        string_val: "ma"
        string_val: "name"
        string_val: "blues"
        string_val: "west"
        string_val: "rides"
        string_val: "again"
        string_val: "nathan"
        string_val: "wise"
        string_val: "david"
        string_val: "henry"
        string_val: "hwang"
        string_val: "nicky"
        string_val: "jam"
        string_val: "liberty"
        string_val: "forever"
        string_val: "road"
        string_val: "trip"
        string_val: "neighboring"
        string_val: "our"
        string_val: "apartment"
        string_val: "journal"
        string_val: "economics"
        string_val: "sociology"
        string_val: "place"
        string_val: "iran"
        string_val: "neva"
        string_val: "alice"
        string_val: "maggie"
        string_val: "parker"
        string_val: "jamaica"
        string_val: "say"
        string_val: "metal"
        string_val: "ulterior"
        string_val: "motive"
        string_val: "memorial"
        string_val: "anson"
        string_val: "hu"
        string_val: "conexiones"
        string_val: "rakim"
        string_val: "ken"
        string_val: "gold"
        string_val: "edition"
        string_val: "supposed"
        string_val: "sunny"
        string_val: "window"
        string_val: "display"
        string_val: "manager"
        string_val: "story"
        string_val: "wa"
        string_val: "totsuzen"
        string_val: "ni"
        string_val: "garrix"
        string_val: "freezing"
        string_val: "jun"
        string_val: "21st"
        string_val: "apshawa"
        string_val: "south"
        string_val: "africa"
        string_val: "something"
        string_val: "faultline"
        string_val: "jannie"
        string_val: "strength"
        string_val: "street"
        string_val: "knowledge"
        string_val: "chilly"
        string_val: "oregonia"
        string_val: "terrible"
        string_val: "ratings"
        string_val: "training"
        string_val: "thirteenth"
        string_val: "2026"
        string_val: "party"
        string_val: "laos"
        string_val: "theme"
        string_val: "has"
        string_val: "chicken"
        string_val: "fried"
        string_val: "bacon"
        string_val: "vermont"
        string_val: "amco"
        string_val: "entertainment"
        string_val: "minute"
        string_val: "painting"
        string_val: "thunder"
        string_val: "sky"
        string_val: "amc"
        string_val: "colder"
        string_val: "costa"
        string_val: "rica"
        string_val: "not"
        string_val: "culdesac"
        string_val: "matt"
        string_val: "bachand"
        string_val: "pure"
        string_val: "roll"
        string_val: "chillier"
        string_val: "la"
        string_val: "mesa"
        string_val: "type"
        string_val: "houston"
        string_val: "press"
        string_val: "walt"
        string_val: "man"
        string_val: "behind"
        string_val: "myth"
        string_val: "textbook"
        string_val: "lease"
        string_val: "death"
        string_val: "don"
        string_val: "moye"
        string_val: "pop"
        string_val: "verano"
        string_val: "tale"
        string_val: "mr"
        string_val: "jeremy"
        string_val: "fisher"
        string_val: "seat"
        string_val: "10"
        string_val: "ottumwa"
        string_val: "serves"
        string_val: "osteria"
        string_val: "ranch"
        string_val: "dressing"
        string_val: "china"
        string_val: "kokomo"
        string_val: "fall"
        string_val: "venezuela"
        string_val: "joe"
        string_val: "hickerson"
        string_val: "jazz"
        string_val: "classical"
        string_val: "crossings"
        string_val: "robot"
        string_val: "winger"
        string_val: "good"
        string_val: "evil"
        string_val: "loews"
        string_val: "cineplex"
        string_val: "hail"
        string_val: "hale"
        string_val: "center"
        string_val: "22"
        string_val: "2030"
        string_val: "up"
        string_val: "holy"
        string_val: "water"
        string_val: "dunbrody"
        string_val: "country"
        string_val: "hotel"
        string_val: "serbia"
        string_val: "pipe"
        string_val: "spring"
        string_val: "monument"
        string_val: "batman"
        string_val: "return"
        string_val: "bruce"
        string_val: "wayne"
        string_val: "special"
        string_val: "assignments"
        string_val: "spanish"
        string_val: "rice"
        string_val: "cafeteria"
        string_val: "ten"
        string_val: "today"
        string_val: "fog"
        string_val: "nebraska"
        string_val: "feed"
        string_val: "kitty"
        string_val: "girl"
        string_val: "general"
        string_val: "maldeamores"
        string_val: "saga"
        string_val: "wisconsin"
        string_val: "cameroon"
        string_val: "sirivantha"
        string_val: "lualualei"
        string_val: "tim"
        string_val: "wright"
        string_val: "onto"
        string_val: "queen"
        string_val: "popular"
        string_val: "tyrolean"
        string_val: "steakhouse"
        string_val: "madison"
        string_val: "hour"
        string_val: "minutes"
        string_val: "second"
        string_val: "soundtrack"
        string_val: "om"
        string_val: "napoleon"
        string_val: "xiv"
        string_val: "sharlene"
        string_val: "transatlantic"
        string_val: "lullaby"
        string_val: "port"
        string_val: "vue"
        string_val: "chas"
        string_val: "chandler"
        string_val: "aux"
        string_val: "cord"
        string_val: "privileges"
        string_val: "boyish"
        string_val: "storm"
        string_val: "sioux"
        string_val: "city"
        string_val: "al"
        string_val: "saviour"
        string_val: "irv"
        string_val: "gotti"
        string_val: "presents"
        string_val: "murderers"
        string_val: "seats"
        string_val: "ak"
        string_val: "hours"
        string_val: "malin"
        string_val: "ky"
        string_val: "wilma"
        string_val: "gay"
        string_val: "gowanus"
        string_val: "yacht"
        string_val: "club"
        string_val: "montenegro"
        string_val: "maine"
        string_val: "silver"
        string_val: "chalice"
        string_val: "we"
        string_val: "gaming"
        string_val: "feb"
        string_val: "sixth"
        string_val: "2024"
        string_val: "blanco"
        string_val: "humid"
        string_val: "kuwait"
        string_val: "go"
        string_val: "venetian"
        string_val: "gabon"
        string_val: "seven"
        string_val: "romance"
        string_val: "range"
        string_val: "yet"
        string_val: "memoir"
        string_val: "living"
        string_val: "almost"
        string_val: "dying"
        string_val: "was"
        string_val: "have"
        string_val: "southeastern"
        string_val: "brazilian"
        string_val: "dominica"
        string_val: "ups"
        string_val: "as"
        string_val: "tears"
        string_val: "next"
        string_val: "friday"
        string_val: "tn"
        string_val: "lets"
        string_val: "before"
        string_val: "pool"
        string_val: "brian"
        string_val: "may"
        string_val: "reggae"
        string_val: "infusions"
        string_val: "sombrero"
        string_val: "fallout"
        string_val: "japanese"
        string_val: "artist"
        string_val: "phunkadelic"
        string_val: "previous"
        string_val: "speakeasy"
        string_val: "fish"
        string_val: "express"
        string_val: "andrews"
        string_val: "university"
        string_val: "seminary"
        string_val: "studies"
        string_val: "framed"
        string_val: "ntc"
        string_val: "studio"
        string_val: "sounds"
        string_val: "carolina"
        string_val: "2037"
        string_val: "hicks"
        string_val: "hot"
        string_val: "saint"
        string_val: "jo"
        string_val: "alaska"
        string_val: "escapada"
        string_val: "royal"
        string_val: "astronomy"
        string_val: "manxman"
        string_val: "snowfall"
        string_val: "areas"
        string_val: "an"
        string_val: "week"
        string_val: "comes"
        string_val: "dukes"
        string_val: "district"
        string_val: "columbia"
        string_val: "fine"
        string_val: "meast"
        string_val: "tea"
        string_val: "21"
        string_val: "northern"
        string_val: "mariana"
        string_val: "boyce"
        string_val: "hart"
        string_val: "urban"
        string_val: "hits"
        string_val: "railway"
        string_val: "children"
        string_val: "within"
        string_val: "walking"
        string_val: "distance"
        string_val: "magic"
        string_val: "johnson"
        string_val: "plitt"
        string_val: "mckenna"
        string_val: "shakira"
        string_val: "stripes"
        string_val: "soulful"
        string_val: "disco"
        string_val: "codebreakers"
        string_val: "value"
        string_val: "moments"
        string_val: "eminence"
        string_val: "dolls"
        string_val: "three"
        string_val: "move"
        string_val: "selektor"
        string_val: "conditions"
        string_val: "camp"
        string_val: "bird"
        string_val: "deserves"
        string_val: "possible"
        string_val: "reserve"
        string_val: "andouillettes"
        string_val: "same"
        string_val: "marino"
        string_val: "cyprus"
        string_val: "lanta"
        string_val: "albania"
        string_val: "annette"
        string_val: "darlene"
        string_val: "barbara"
        string_val: "james"
        string_val: "honduras"
        string_val: "any"
        string_val: "outlaw"
        string_val: "gor"
        string_val: "atmospheric"
        string_val: "black"
        string_val: "caribbean"
        string_val: "warm"
        string_val: "eat"
        string_val: "escondida"
        string_val: "sister"
        string_val: "clafoutis"
        string_val: "location"
        string_val: "union"
        string_val: "auto"
        string_val: "company"
        string_val: "make"
        string_val: "sicilian"
        string_val: "only"
        string_val: "midnight"
        string_val: "rated"
        string_val: "brasserie"
        string_val: "pakistan"
        string_val: "alex"
        string_val: "gaudino"
        string_val: "waltz"
        string_val: "total"
        string_val: "dirt"
        string_val: "farmer"
        string_val: "colorado"
        string_val: "pitch"
        string_val: "brigade"
        string_val: "autumn"
        string_val: "azerbaijan"
        string_val: "how"
        string_val: "cold"
        string_val: "princeton"
        string_val: "junction"
        string_val: "casting"
        string_val: "crowns"
        string_val: "discography"
        string_val: "five"
        string_val: "access"
        string_val: "rising"
        string_val: "currently"
        string_val: "brotherly"
        string_val: "showtimes"
        string_val: "unleashed"
        string_val: "ii"
        string_val: "view"
        string_val: "workin"
        string_val: "miles"
        string_val: "davis"
        string_val: "quintet"
        string_val: "foundation"
        string_val: "overcast"
        string_val: "lunch"
        string_val: "vincent"
        string_val: "grenadines"
        string_val: "douglas"
        string_val: "help"
        string_val: "neuroscience"
        string_val: "research"
        string_val: "cleo"
        string_val: "laine"
        string_val: "high"
        string_val: "noon"
        string_val: "food"
        string_val: "plays"
        string_val: "cloudy"
        string_val: "if"
        string_val: "ll"
        string_val: "papua"
        string_val: "guinea"
        string_val: "larsen"
        string_val: "cardio"
        string_val: "arkansas"
        string_val: "morrison"
        string_val: "hohenfriedberger"
        string_val: "marsch"
        string_val: "novedades"
        string_val: "tsubasa"
        string_val: "imai"
        string_val: "glass"
        string_val: "sin"
        string_val: "ti"
        string_val: "bronco"
        string_val: "billy"
        string_val: "sligo"
        string_val: "named"
        string_val: "kirk"
        string_val: "hammett"
        string_val: "los"
        string_val: "40"
        string_val: "radio"
        string_val: "\303\251xitos"
        string_val: "suwannee"
        string_val: "fresh"
        string_val: "finds"
        string_val: "through"
        string_val: "distant"
        string_val: "worlds"
        string_val: "gears"
        string_val: "mortal"
        string_val: "hands"
        string_val: "expected"
        string_val: "beckley"
        string_val: "memories"
        string_val: "witness"
        string_val: "too"
        string_val: "young"
        string_val: "marry"
        string_val: "curacao"
        string_val: "lesotho"
        string_val: "starting"
        string_val: "treeful"
        string_val: "starling"
        string_val: "watauga"
        string_val: "aunt"
        string_val: "consolidated"
        string_val: "russia"
        string_val: "2036"
        string_val: "reason"
        string_val: "bachelor"
        string_val: "highly"
        string_val: "northeastern"
        string_val: "satanta"
        string_val: "latin"
        string_val: "rocketeer"
        string_val: "georgia"
        string_val: "nephew"
        string_val: "kids"
        string_val: "plylist"
        string_val: "mix"
        string_val: "guru"
        string_val: "november"
        string_val: "19"
        string_val: "position"
        string_val: "uncharted"
        string_val: "drake"
        string_val: "frl"
        string_val: "menke"
        string_val: "comedy"
        string_val: "cut"
        string_val: "rope"
        string_val: "ray"
        string_val: "noble"
        string_val: "chill"
        string_val: "vibes"
        string_val: "ny"
        string_val: "skillman"
        string_val: "francisco"
        string_val: "netherlands"
        string_val: "antilles"
        string_val: "eleven"
        string_val: "diner"
        string_val: "fort"
        string_val: "loudon"
        string_val: "guadeloupe"
        string_val: "oasis"
        string_val: "drive"
        string_val: "beach"
        string_val: "105th"
        string_val: "temperate"
        string_val: "dinner"
        string_val: "jamie"
        string_val: "hallie"
        string_val: "winter"
        string_val: "chemistry"
        string_val: "european"
        string_val: "botna"
        string_val: "blue"
        string_val: "ribbon"
        string_val: "barbecue"
        string_val: "plutonium"
        string_val: "files"
        string_val: "nicaragua"
        string_val: "spa"
        string_val: "metropolitan"
        string_val: "borough"
        string_val: "lambeth"
        string_val: "portrait"
        string_val: "countess"
        string_val: "karoly"
        string_val: "feel"
        string_val: "adventure"
        string_val: "yellow"
        string_val: "curl"
        string_val: "papers"
        string_val: "looking"
        string_val: "jack"
        string_val: "shadows"
        string_val: "waxhaw"
        string_val: "baotianman"
        string_val: "nature"
        string_val: "unite"
        string_val: "win"
        string_val: "night"
        string_val: "falkland"
        string_val: "kool"
        string_val: "keith"
        string_val: "pull"
        string_val: "channel"
        string_val: "news"
        string_val: "outer"
        string_val: "space"
        string_val: "megaplex"
        string_val: "truck"
        string_val: "tuscan"
        string_val: "adela"
        string_val: "hallam"
        string_val: "indiana"
        string_val: "dj"
        string_val: "kay"
        string_val: "slay"
        string_val: "2010"
        string_val: "decade"
        string_val: "first"
        string_val: "leche"
        string_val: "con"
        string_val: "chocolate"
        string_val: "svalbard"
        string_val: "jan"
        string_val: "mayen"
        string_val: "marshall"
        string_val: "every"
        string_val: "little"
        string_val: "crook"
        string_val: "nanny"
        string_val: "elderton"
        string_val: "global"
        string_val: "funk"
        string_val: "downtown"
        string_val: "luisa"
        string_val: "robyn"
        string_val: "martinez"
        string_val: "maude"
        string_val: "their"
        string_val: "pa"
        string_val: "old"
        string_val: "orchard"
        string_val: "open"
        string_val: "acoustic"
        string_val: "concentration"
        string_val: "entire"
        string_val: "pickled"
        string_val: "cucumber"
        string_val: "wild"
        string_val: "co"
        string_val: "operative"
        string_val: "block"
        string_val: "building"
        string_val: "nd"
        string_val: "wifi"
        string_val: "frybread"
        string_val: "cowboy"
        string_val: "troy"
        string_val: "piano"
        string_val: "background"
        string_val: "megon"
        string_val: "mcdonough"
        string_val: "slackers"
        string_val: "pizzeria"
        string_val: "hampshire"
        string_val: "parking"
        string_val: "souvlaki"
        string_val: "hadar"
        string_val: "mount"
        string_val: "victory"
        string_val: "delaware"
        string_val: "generation"
        string_val: "ce"
        string_val: "cher"
        string_val: "intrus"
        string_val: "imax"
        string_val: "corporation"
        string_val: "challenge"
        string_val: "boss"
        string_val: "glassy"
        string_val: "turkey"
        string_val: "metabolights"
        string_val: "castle"
        string_val: "daily"
        string_val: "lift"
        string_val: "point"
        string_val: "cooler"
        string_val: "climate"
        string_val: "starts"
        string_val: "purchase"
        string_val: "dancing"
        string_val: "dark"
        string_val: "ferret"
        string_val: "evening"
        string_val: "groove"
        string_val: "playcanvas"
        string_val: "shangri"
        string_val: "african"
        string_val: "heat"
        string_val: "clinton"
        string_val: "baking"
        string_val: "folly"
        string_val: "rex"
        string_val: "osierfield"
        string_val: "salami"
        string_val: "bastian"
        string_val: "buy"
        string_val: "teahouse"
        string_val: "fire"
        string_val: "canciones"
        string_val: "que"
        string_val: "lo"
        string_val: "petar"
        string_val: "family"
        string_val: "plot"
        string_val: "creature"
        string_val: "teacher"
        string_val: "ca"
        string_val: "monty"
        string_val: "secunderabad"
        string_val: "bhutan"
        string_val: "singing"
        string_val: "nun"
        string_val: "regal"
        string_val: "group"
        string_val: "reservations"
        string_val: "newtown"
        string_val: "hitchita"
        string_val: "or"
        string_val: "li"
        string_val: "yuchun"
        string_val: "kickass"
        string_val: "intersections"
        string_val: "so"
        string_val: "right"
        string_val: "lora"
        string_val: "80s"
        string_val: "classic"
        string_val: "call"
        string_val: "julian"
        string_val: "taylor"
        string_val: "dance"
        string_val: "civil"
        string_val: "army"
        string_val: "vs"
        string_val: "navy"
        string_val: "taste"
        string_val: "blackberries"
        string_val: "wrigley"
        string_val: "carlisle"
        string_val: "gardens"
        string_val: "born"
        string_val: "america"
        string_val: "mustoe"
        string_val: "iceland"
        string_val: "marva"
        string_val: "burundi"
        string_val: "bach"
        string_val: "te"
        string_val: "quiero"
        string_val: "unborn"
        string_val: "but"
        string_val: "forgotten"
        string_val: "pavarotti"
        string_val: "boon"
        string_val: "brick"
        string_val: "store"
        string_val: "information"
        string_val: "star"
        string_val: "fear"
        string_val: "loathing"
        string_val: "campaign"
        string_val: "trail"
        string_val: "72"
        string_val: "sherri"
        string_val: "meditate"
        string_val: "step"
        string_val: "adam"
        string_val: "clayton"
        string_val: "sxsw"
        string_val: "following"
        string_val: "zen"
        string_val: "focus"
        string_val: "hardest"
        string_val: "part"
        string_val: "bret"
        string_val: "mckenzie"
        string_val: "commute"
        string_val: "southern"
        string_val: "gothic"
        string_val: "glade"
        string_val: "twenty"
        string_val: "2033"
        string_val: "brad"
        string_val: "kane"
        string_val: "pumping"
        string_val: "iron"
        string_val: "woodport"
        string_val: "culture"
        string_val: "psychology"
        string_val: "birthday"
        string_val: "secrets"
        string_val: "alibi"
        string_val: "keep"
        string_val: "calm"
        string_val: "westernport"
        string_val: "smith"
        string_val: "il"
        string_val: "sturgis"
        string_val: "2006"
        string_val: "clock"
        string_val: "armistead"
        string_val: "burwell"
        string_val: "iv"
        string_val: "masters"
        string_val: "jeff"
        string_val: "burrows"
        string_val: "iene"
        string_val: "miene"
        string_val: "mutte"
        string_val: "women"
        string_val: "your"
        string_val: "heart"
        string_val: "stops"
        string_val: "beating"
        string_val: "tonight"
        string_val: "rajasthani"
        string_val: "bermuda"
        string_val: "lemonheads"
        string_val: "salsa"
        string_val: "classics"
        string_val: "colony"
        string_val: "dickinson"
        string_val: "month"
        string_val: "apple"
        string_val: "grove"
        string_val: "dc"
        string_val: "de"
        string_val: "camino"
        string_val: "beatmania"
        string_val: "iidx"
        string_val: "10th"
        string_val: "style"
        string_val: "somiedo"
        string_val: "natural"
        string_val: "office"
        string_val: "california"
        string_val: "glorious"
        string_val: "way"
        string_val: "die"
        string_val: "blood"
        string_val: "others"
        string_val: "borrowed"
        string_val: "prediction"
        string_val: "camdeboo"
        string_val: "nationalpark"
        string_val: "eleventh"
        string_val: "todo"
        string_val: "latino"
        string_val: "absolutely"
        string_val: "sweet"
        string_val: "marie"
        string_val: "harry"
        string_val: "connick"
        string_val: "jr"
        string_val: "brasileiro"
        string_val: "places"
        string_val: "stacy"
        string_val: "vanuatu"
        string_val: "lamentable"
        string_val: "journey"
        string_val: "omaha"
        string_val: "bigelow"
        string_val: "impenetrable"
        string_val: "loisaida"
        string_val: "jungle"
        string_val: "television"
        string_val: "chips"
        string_val: "italy"
        string_val: "awakened"
        string_val: "qatar"
        string_val: "boys"
        string_val: "band"
        string_val: "big"
        string_val: "question"
        string_val: "golden"
        string_val: "sandie"
        string_val: "shaw"
        string_val: "martinique"
        string_val: "york"
        string_val: "melody"
        string_val: "pesotum"
        string_val: "jennie"
        string_val: "pot"
        string_val: "doughnuts"
        string_val: "gd"
        string_val: "dishyum"
        string_val: "mama"
        string_val: "thornton"
        string_val: "trabajo"
        string_val: "relax"
        string_val: "moroccan"
        string_val: "east"
        string_val: "greenville"
        string_val: "nyoil"
        string_val: "prince"
        string_val: "nice"
        string_val: "operation"
        string_val: "oyster"
        string_val: "season"
        string_val: "fi"
        string_val: "william"
        string_val: "boone"
        string_val: "short"
        string_val: "fast"
        string_val: "maid"
        string_val: "amsterdam"
        string_val: "smash"
        string_val: "canal"
        string_val: "fulton"
        string_val: "ar"
        string_val: "indoor"
        string_val: "accommodate"
        string_val: "also"
        string_val: "cheat"
        string_val: "fair"
        string_val: "maxwell"
        string_val: "bistro"
        string_val: "pasta"
        string_val: "salad"
        string_val: "brazil"
        string_val: "earth"
        string_val: "intruders"
        string_val: "whisperer"
        string_val: "curse"
        string_val: "guest"
        string_val: "engadget"
        string_val: "no"
        string_val: "floor"
        string_val: "snow"
        string_val: "adventures"
        string_val: "lolo"
        string_val: "dovre"
        string_val: "going"
        string_val: "belarus"
        string_val: "future"
        string_val: "sugar"
        string_val: "bush"
        string_val: "edge"
        string_val: "soul"
        string_val: "venedig"
        string_val: "im"
        string_val: "regen"
        string_val: "juan"
        string_val: "capistrano"
        string_val: "wahhabi"
        string_val: "islam"
        string_val: "revival"
        string_val: "reform"
        string_val: "jihad"
        string_val: "outlaws"
        string_val: "sherwood"
        string_val: "marcus"
        string_val: "shame"
        string_val: "boyertown"
        string_val: "zealand"
        string_val: "eighteen"
        string_val: "showings"
        string_val: "vigus"
        string_val: "might"
        string_val: "well"
        string_val: "crate"
        string_val: "diggers"
        string_val: "anonymous"
        string_val: "madman"
        string_val: "trap"
        string_val: "land"
        string_val: "april"
        string_val: "2nd"
        string_val: "coney"
        string_val: "island"
        string_val: "nv"
        string_val: "unbeatable"
        string_val: "harold"
        string_val: "century"
        string_val: "scheduled"
        string_val: "bondage"
        string_val: "freedom"
        string_val: "upon"
        string_val: "some"
        string_val: "midnights"
        string_val: "clear"
        string_val: "chronicle"
        string_val: "performance"
        string_val: "horse"
        string_val: "weekly"
        string_val: "xyy"
        string_val: "beautiful"
        string_val: "ironing"
        string_val: "booking"
        string_val: "indian"
        string_val: "climax"
        string_val: "springs"
        string_val: "mexico"
        string_val: "flash"
        string_val: "stop"
        string_val: "motion"
        string_val: "sri"
        string_val: "lanka"
        string_val: "who"
        string_val: "seconds"
        string_val: "dakota"
        string_val: "migration"
        string_val: "person"
        string_val: "jansen"
        string_val: "english"
        string_val: "wauregan"
        string_val: "michael"
        string_val: "hayvoronsky"
        string_val: "suena"
        string_val: "angeles"
        string_val: "gets"
        string_val: "laundry"
        string_val: "diary"
        string_val: "anne"
        string_val: "frank"
        string_val: "mystery"
        string_val: "essentials"
        string_val: "broken"
        string_val: "sahara"
        string_val: "13"
        string_val: "symphony"
        string_val: "solo"
        string_val: "cummings"
        string_val: "mississippi"
        string_val: "pet"
        string_val: "cairo"
        string_val: "zoo"
        string_val: "reno"
        string_val: "indiespain"
        string_val: "locate"
        string_val: "master"
        string_val: "ballantrae"
        string_val: "volume"
        string_val: "naomi"
        string_val: "schemer"
        string_val: "hanging"
        string_val: "relaxing"
        string_val: "tenth"
        string_val: "nosh"
        string_val: "bakery"
        string_val: "magnifico"
        string_val: "michele"
        string_val: "88"
        string_val: "keys"
        string_val: "invisible"
        string_val: "kipp"
        string_val: "rhode"
        string_val: "chart"
        string_val: "throb"
        string_val: "peter"
        string_val: "iwers"
        string_val: "gym"
        string_val: "strong"
        string_val: "faith"
        string_val: "chaos"
        string_val: "snowy"
        string_val: "pillow"
        string_val: "original"
        string_val: "pies"
        string_val: "plandome"
        string_val: "manor"
        string_val: "award"
        string_val: "tables"
        string_val: "hear"
        string_val: "sit"
        string_val: "down"
        string_val: "talk"
        string_val: "oman"
        string_val: "medical"
        string_val: "dead"
        string_val: "dallas"
        string_val: "manual"
        string_val: "taverna"
        string_val: "cousin"
        string_val: "check"
        string_val: "being"
        string_val: "aired"
        string_val: "halls"
        string_val: "avalon"
        string_val: "ariston"
        string_val: "cafe"
        string_val: "resurrection"
        string_val: "scorpion"
        string_val: "cuts"
        string_val: "both"
        string_val: "ways"
        string_val: "green"
        string_val: "mellowed"
        string_val: "belle"
        string_val: "yukon"
        string_val: "gregory"
        string_val: "douglass"
        string_val: "whm"
        string_val: "naked"
        string_val: "lisa"
        string_val: "dalbello"
        string_val: "2015"
        string_val: "cma"
        string_val: "awards"
        string_val: "nominees"
        string_val: "niece"
        string_val: "somewhere"
        string_val: "hopatcong"
        string_val: "lonely"
        string_val: "hearts"
        string_val: "dipson"
        string_val: "chinese"
        string_val: "wikipedia"
        string_val: "long"
        string_val: "lake"
        string_val: "wildlife"
        string_val: "refuge"
        string_val: "harkins"
        string_val: "sudan"
        string_val: "cuban"
        string_val: "horatio"
        string_val: "touch"
        string_val: "eva"
        string_val: "doctor"
        string_val: "theater"
        string_val: "near"
        string_val: "crossroad"
        string_val: "maliau"
        string_val: "basin"
        string_val: "conservation"
        string_val: "compiled"
        string_val: "fragments"
        string_val: "1997"
        string_val: "2003"
        string_val: "icewind"
        string_val: "dale"
        string_val: "does"
        string_val: "mexican"
        string_val: "werewolf"
        string_val: "start"
        string_val: "schooltool"
        string_val: "seduction"
        string_val: "playlists"
        string_val: "court"
        string_val: "craig"
        string_val: "mountain"
        string_val: "management"
        string_val: "muppet"
        string_val: "christmas"
        string_val: "carol"
        string_val: "cotton"
        string_val: "mission"
        string_val: "bay"
        string_val: "cars"
        string_val: "sensations"
        string_val: "1945"
        string_val: "marci"
        string_val: "marylou"
        string_val: "amelia"
        string_val: "korea"
        string_val: "halloween"
        string_val: "livonia"
        string_val: "av"
        string_val: "republican"
        string_val: "brain"
        string_val: "jasmund"
        string_val: "mediterranean"
        string_val: "klute"
        string_val: "winifred"
        string_val: "clase"
        string_val: "bedroom"
        string_val: "jams"
        string_val: "11"
        string_val: "36"
        string_val: "48"
        string_val: "tal"
        string_val: "chhapar"
        string_val: "sanctuary"
        string_val: "amusements"
        string_val: "arclight"
        string_val: "hollywood"
        string_val: "orthodox"
        string_val: "ad"
        string_val: "mailroom"
        string_val: "history"
        string_val: "bottom"
        string_val: "stracciatella"
        string_val: "oakdale"
        string_val: "ok"
        string_val: "gn"
        string_val: "activists"
        string_val: "wars"
        string_val: "dream"
        string_val: "sunrise"
        string_val: "pizzette"
        string_val: "duxbury"
        string_val: "kaltag"
        string_val: "ila"
        string_val: "mi"
        string_val: "manera"
        string_val: "recopilatorio"
        string_val: "stood"
        string_val: "still"
        string_val: "candlelight"
        string_val: "afterwork"
        string_val: "glory"
        string_val: "contact"
        string_val: "nu"
        string_val: "16"
        string_val: "jordan"
        string_val: "beardyman"
        string_val: "memoirs"
        string_val: "issue"
        string_val: "haunted"
        string_val: "spooks"
        string_val: "jeanne"
        string_val: "collins"
        string_val: "amy"
        string_val: "balkan"
        string_val: "rhapsodies"
        string_val: "78"
        string_val: "measures"
        string_val: "malco"
        string_val: "datil"
        string_val: "todd"
        string_val: "snider"
        string_val: "electro"
        string_val: "diamond"
        string_val: "chariot"
        string_val: "flower"
        string_val: "eighth"
        string_val: "day"
        string_val: "holiday"
        string_val: "nations"
        string_val: "hipster"
        string_val: "advocate"
        string_val: "origins"
        string_val: "jenifer"
        string_val: "2000"
        string_val: "lower"
        string_val: "sep"
        string_val: "2038"
        string_val: "whole"
        string_val: "richard"
        string_val: "carvel"
        string_val: "jones"
        string_val: "blind"
        string_val: "cope"
        string_val: "woman"
        string_val: "crying"
        string_val: "birds"
        string_val: "stroll"
        string_val: "pork"
        string_val: "kes"
        string_val: "dinnertime"
        string_val: "acoustics"
        string_val: "summer"
        string_val: "nation"
        string_val: "bones"
        string_val: "read"
        string_val: "bombay"
        string_val: "society"
        string_val: "playist"
        string_val: "gear"
        string_val: "sonja"
        string_val: "otsego"
        string_val: "r\303\251union"
        string_val: "morganville"
        string_val: "vampires"
        string_val: "selinsgrove"
        string_val: "shirley"
        string_val: "aviatrice"
        string_val: "chile"
        string_val: "ho"
        string_val: "arcola"
        string_val: "yury"
        string_val: "chernavsky"
        string_val: "alternative"
        string_val: "route"
        string_val: "javanese"
        string_val: "entfesselt"
        string_val: "try"
        string_val: "vermicelli"
        string_val: "free"
        string_val: "universe"
        string_val: "musgrave"
        string_val: "barnard"
        string_val: "ora"
        string_val: "workout"
        string_val: "ambient"
        string_val: "edesville"
        string_val: "mn"
        string_val: "25"
        string_val: "ridge"
        string_val: "farm"
        string_val: "hardinsburg"
        string_val: "20"
        string_val: "wannabe"
        string_val: "spice"
        string_val: "girls"
        string_val: "reinvented"
        string_val: "fame"
        string_val: "kd"
        string_val: "lang"
        string_val: "deep"
        string_val: "noreen"
        string_val: "strings"
        string_val: "israel"
        string_val: "undressed"
        string_val: "icon"
        string_val: "smoking"
        string_val: "room"
        string_val: "hell"
        string_val: "cuisine"
        string_val: "germany"
        string_val: "chieko"
        string_val: "ochi"
        string_val: "drum"
        string_val: "breaks"
        string_val: "temperature"
        string_val: "after"
        string_val: "attic"
        string_val: "delicatessen"
        string_val: "prosser"
        string_val: "18th"
        string_val: "grandfather"
        string_val: "booker"
        string_val: "shahrum"
        string_val: "kashani"
        string_val: "salt"
        string_val: "50"
        string_val: "words"
        string_val: "harrison"
        string_val: "crawford"
        string_val: "forest"
        string_val: "hitman"
        string_val: "rat"
        string_val: "owen"
        string_val: "biddle"
        string_val: "tooth"
        string_val: "contemporary"
        string_val: "religious"
        string_val: "satanism"
        string_val: "allenwood"
        string_val: "favorite"
        string_val: "slaughterhouse"
        string_val: "racing"
        string_val: "rain"
        string_val: "kebab"
        string_val: "connection"
        string_val: "kaakai"
        string_val: "newspaper"
        string_val: "ghost"
        string_val: "town"
        string_val: "prophecy"
        string_val: "adaptive"
        string_val: "coloration"
        string_val: "animals"
        string_val: "oak"
        string_val: "heavy"
        string_val: "gamer"
        string_val: "irish"
        string_val: "az"
        string_val: "chain"
        string_val: "events"
        string_val: "stormy"
        string_val: "afternoon"
        string_val: "maryland"
        string_val: "thai"
        string_val: "paraguay"
        string_val: "saturday"
        string_val: "ashes"
        string_val: "buddy"
        string_val: "tate"
        string_val: "just"
        string_val: "aftercluv"
        string_val: "wandering"
        string_val: "detective"
        string_val: "wind"
        string_val: "harbor"
        string_val: "cinemark"
        string_val: "ringside"
        string_val: "hurricane"
        string_val: "jersey"
        string_val: "cloud"
        string_val: "175"
        string_val: "golconda"
        string_val: "vt"
        string_val: "tajikistan"
        string_val: "dec"
        string_val: "twentieth"
        string_val: "sea"
        string_val: "cabinet"
        string_val: "angola"
        string_val: "keke"
        string_val: "wyatt"
        string_val: "uetoaya"
        string_val: "nov"
        string_val: "fifteenth"
        string_val: "purcell"
        string_val: "odeon"
        string_val: "charming"
        string_val: "worldly"
        string_val: "goods"
        string_val: "chirping"
        string_val: "crickets"
        string_val: "father"
        string_val: "law"
        string_val: "gratin"
        string_val: "roadrunner"
        string_val: "rec"
        string_val: "releases"
        string_val: "jade"
        string_val: "faced"
        string_val: "assassin"
        string_val: "carry"
        string_val: "dreams"
        string_val: "croissant"
        string_val: "barbary"
        string_val: "coast"
        string_val: "pierre"
        string_val: "miquelon"
        string_val: "loves"
        string_val: "she"
        string_val: "danny"
        string_val: "carey"
        string_val: "argentina"
        string_val: "joseph"
        string_val: "meyer"
        string_val: "mad"
        string_val: "cool"
        string_val: "festival"
        string_val: "jessie"
        string_val: "lupe"
        string_val: "2040"
        string_val: "9am"
        string_val: "smart"
        string_val: "spenard"
        string_val: "gu"
        string_val: "8th"
        string_val: "nj"
        string_val: "british"
        string_val: "edda"
        string_val: "concert"
        string_val: "1981"
        string_val: "without"
        string_val: "condition"
        string_val: "indonesian"
        string_val: "ia"
        string_val: "greenland"
        string_val: "scarlet"
        string_val: "portugal"
        string_val: "grandes"
        string_val: "unplugged"
        string_val: "potato"
        string_val: "alabama"
        string_val: "fourth"
        string_val: "virgin"
        string_val: "pocket"
        string_val: "full"
        string_val: "kryptonite"
        string_val: "wee"
        string_val: "pamela"
        string_val: "stress"
        string_val: "relief"
        string_val: "beaver"
        string_val: "towers"
        string_val: "15"
        string_val: "guernsey"
        string_val: "literary"
        string_val: "peel"
        string_val: "pie"
        string_val: "brokeback"
        string_val: "post"
        string_val: "inferno"
        string_val: "whats"
        string_val: "palmview"
        string_val: "canaich"
        string_val: "bad"
        string_val: "branch"
        string_val: "falls"
        string_val: "preserve"
        string_val: "14"
        string_val: "tennessee"
        string_val: "baker"
        string_val: "keyboard"
        string_val: "lounge"
        string_val: "crucible"
        string_val: "wicked"
        string_val: "endless"
        string_val: "horizons"
        string_val: "06"
        string_val: "made"
        string_val: "edit"
        string_val: "adding"
        string_val: "smokefree"
        string_val: "rockquest"
        string_val: "2005"
        string_val: "facility"
        string_val: "triumph"
        string_val: "could"
        string_val: "warmer"
        string_val: "lothian"
        string_val: "smoke"
        string_val: "universum"
        string_val: "september"
        string_val: "17"
        string_val: "situation"
        string_val: "december"
        string_val: "worms"
        string_val: "clan"
        string_val: "wheeler"
        string_val: "4th"
        string_val: "2019"
        string_val: "duett"
        string_val: "grandson"
        string_val: "tabloid"
        string_val: "andrew"
        string_val: "hurley"
        string_val: "workweek"
        string_val: "spain"
        string_val: "2023"
        string_val: "mashable"
        string_val: "crisis"
        string_val: "final"
        string_val: "fantasy"
        string_val: "vii"
        string_val: "sashimi"
        string_val: "80"
        string_val: "bill"
        string_val: "frisell"
        string_val: "sofia"
        string_val: "phillips"
        string_val: "walker"
        string_val: "dine"
        string_val: "mughlai"
        string_val: "1st"
        string_val: "practice"
        string_val: "deceive"
        string_val: "silly"
        string_val: "windows"
        string_val: "barbados"
        string_val: "creole"
        string_val: "deception"
        string_val: "outpost"
        string_val: "firewall"
        string_val: "pro"
        string_val: "intensity"
        string_val: "sundown"
        string_val: "vampire"
        string_val: "retreat"
        string_val: "alberton"
        string_val: "mother"
        string_val: "austria"
        string_val: "maker"
        string_val: "trips"
        string_val: "destination"
        string_val: "prague"
        string_val: "vi"
        string_val: "keytesville"
        string_val: "shambaugh"
        string_val: "md"
        string_val: "dr"
        string_val: "honigberger"
        string_val: "coxs"
        string_val: "mills"
        string_val: "vatican"
        string_val: "melva"
        string_val: "heidi"
        string_val: "mondamin"
        string_val: "2021"
        string_val: "polish"
        string_val: "assault"
        string_val: "indiespensables"
        string_val: "indonesia"
        string_val: "august"
        string_val: "nineteenth"
        string_val: "sanilac"
        string_val: "petroglyphs"
        string_val: "historic"
        string_val: "tiny"
        string_val: "dancer"
        string_val: "miss"
        string_val: "sloane"
        string_val: "decoding"
        string_val: "reality"
        string_val: "saurials"
        string_val: "ideas"
        string_val: "instrumental"
        string_val: "directions"
        string_val: "girlfriend"
        string_val: "experience"
        string_val: "famous"
        string_val: "thursday"
        string_val: "image"
        string_val: "harveysburg"
        string_val: "vickie"
        string_val: "february"
        string_val: "2018"
        string_val: "creola"
        string_val: "throwback"
        string_val: "count"
        string_val: "predicted"
        string_val: "travel"
        string_val: "crimson"
        string_val: "provincial"
        string_val: "myanmar"
        string_val: "arthur"
        string_val: "rhames"
        string_val: "poet"
        string_val: "foot"
        string_val: "drink"
        string_val: "passage"
        string_val: "goshenville"
        string_val: "pr"
        string_val: "stretch"
        string_val: "axelrod"
        string_val: "futuros"
        string_val: "andy"
        string_val: "sings"
        string_val: "allen"
        string_val: "nurse"
        string_val: "last"
        string_val: "stories"
        string_val: "scottish"
        string_val: "ballads"
        string_val: "eleele"
        string_val: "ebony"
        string_val: "yolanda"
        string_val: "god"
        string_val: "must"
        string_val: "spent"
        string_val: "more"
        string_val: "ruskin"
        string_val: "cobb"
        string_val: "07"
        string_val: "08"
        string_val: "00"
        string_val: "review"
        string_val: "sterling"
        string_val: "run"
        string_val: "geminism"
        string_val: "his"
        string_val: "wife"
        string_val: "take"
        string_val: "croatia"
        string_val: "jul"
        string_val: "25th"
        string_val: "nightmare"
        string_val: "leasburg"
        string_val: "algeria"
        string_val: "maksim"
        string_val: "trad"
        string_val: "folk"
        string_val: "krypto"
        string_val: "superdog"
        string_val: "uncle"
        string_val: "malta"
        string_val: "missouri"
        string_val: "20th"
        string_val: "korean"
        string_val: "osts"
        string_val: "kentuckians"
        string_val: "estelle"
        string_val: "shoot"
        string_val: "elephant"
        string_val: "over"
        string_val: "geraldine"
        string_val: "powerhouses"
        string_val: "siesta"
        string_val: "nothing"
        string_val: "fancy"
        string_val: "sunday"
        string_val: "morning"
        string_val: "played"
        string_val: "mckinley"
        string_val: "body"
        string_val: "above"
        string_val: "chasing"
        string_val: "feeling"
        string_val: "blobby"
        string_val: "moore"
        string_val: "fat"
        string_val: "stupid"
        string_val: "white"
        string_val: "blini"
        string_val: "loving"
        string_val: "spirit"
        string_val: "wimpy"
        string_val: "kid"
        string_val: "creek"
        string_val: "pursuit"
        string_val: "radical"
        string_val: "rhapsody"
        string_val: "pacific"
        string_val: "camille"
        string_val: "wilderness"
        string_val: "furious"
        string_val: "grand"
        string_val: "traverse"
        string_val: "bottomland"
        string_val: "doi"
        string_val: "inthanon"
        string_val: "mark"
        string_val: "shoots"
        string_val: "00s"
        string_val: "wilson"
        string_val: "childs"
        string_val: "restaurants"
        string_val: "brunei"
        string_val: "lovers"
        string_val: "bump"
        string_val: "off"
        string_val: "lover"
        string_val: "tranquility"
        string_val: "pugu"
        string_val: "hills"
        string_val: "308"
        string_val: "fm"
        string_val: "servec"
        string_val: "quiche"
        string_val: "monika"
        string_val: "jets"
        string_val: "gonna"
        string_val: "serenada"
        string_val: "jigs"
        string_val: "reels"
        string_val: "atomic"
        string_val: "edith"
        string_val: "coventry"
        string_val: "schuyler"
        string_val: "geschwisterliebe"
        string_val: "string"
        string_val: "theory"
        string_val: "about"
        string_val: "coaldale"
        string_val: "muncie"
        string_val: "science"
        string_val: "fiction"
        string_val: "mutation"
        string_val: "duetos"
        string_val: "heroes"
        string_val: "waubay"
        string_val: "back"
        string_val: "tallgrass"
        string_val: "prairie"
        string_val: "recordings"
        string_val: "desire"
        string_val: "pimp"
        string_val: "remix"
        string_val: "score"
        string_val: "allenton"
        string_val: "zapata"
        string_val: "needing"
        string_val: "ilo"
        string_val: "elise"
        string_val: "alma"
        string_val: "ravensdale"
        string_val: "mh"
        string_val: "marine"
        string_val: "gate"
        string_val: "bloodstained"
        string_val: "mirrors"
        string_val: "feelin"
        string_val: "zone"
        string_val: "opa"
        string_val: "beauty"
        string_val: "sebastien"
        string_val: "grainger"
        string_val: "mountains"
        string_val: "atlas"
        string_val: "towel"
        string_val: "pat"
        string_val: "alger"
        string_val: "placed"
        string_val: "spotlight"
        string_val: "2016"
        string_val: "depression"
        string_val: "cyber"
        string_val: "monday"
        string_val: "uncommon"
        string_val: "grounds"
        string_val: "coffeehouse"
        string_val: "small"
        string_val: "lee"
        string_val: "seventh"
        string_val: "salinas"
        string_val: "premiere"
        string_val: "loyalhanna"
        string_val: "nour"
        string_val: "mhanna"
        string_val: "workday"
        string_val: "voice"
        string_val: "satanas"
        string_val: "legions"
        string_val: "rates"
        string_val: "hesston"
        string_val: "nc"
        string_val: "found"
        string_val: "them"
        string_val: "portales"
        string_val: "gambia"
        string_val: "humidity"
        string_val: "index"
        string_val: "elizabethville"
        string_val: "333"
        string_val: "caplinger"
        string_val: "florida"
        string_val: "cocktail"
        string_val: "kings"
        string_val: "australian"
        string_val: "ugliness"
        string_val: "basic"
        string_val: "battle"
        string_val: "skills"
        string_val: "georgetown"
        string_val: "mater"
        string_val: "seamus"
        string_val: "heaney"
        string_val: "collected"
        string_val: "poems"
        string_val: "among"
        string_val: "walter"
        string_val: "savoy"
        string_val: "grill"
        string_val: "midday"
        string_val: "grainola"
        string_val: "viernes"
        string_val: "sudam\303\251rica"
        string_val: "xplorer"
        string_val: "lexington"
        string_val: "fayette"
        string_val: "coronado"
        string_val: "lords"
        string_val: "rim"
        string_val: "much"
        string_val: "namibia"
        string_val: "welcome"
        string_val: "cruel"
        string_val: "selections"
        string_val: "belgium"
        string_val: "bow"
        string_val: "tie"
        string_val: "rise"
        string_val: "infidels"
        string_val: "90s"
        string_val: "french"
        string_val: "polynesia"
        string_val: "goof"
        string_val: "pershing"
        string_val: "square"
        string_val: "manhattan"
        string_val: "third"
        string_val: "eye"
        string_val: "rebirth"
        string_val: "franklin"
        string_val: "fiesta"
        string_val: "knocked"
        string_val: "loaded"
        string_val: "mjr"
        string_val: "panama"
        string_val: "custar"
        string_val: "kentucky"
        string_val: "cardinal"
        string_val: "treasures"
        string_val: "complete"
        string_val: "singles"
        string_val: "electronics"
        string_val: "cooper"
        string_val: "saison"
        string_val: "met"
        string_val: "temps"
        string_val: "redby"
        string_val: "wather"
        string_val: "philippines"
        string_val: "monsters"
        string_val: "bother"
        string_val: "swamp"
        string_val: "prentice"
        string_val: "armenia"
        string_val: "dummy"
        string_val: "ice"
        string_val: "cream"
        string_val: "trilogie"
        string_val: "sundanese"
        string_val: "bonaire"
        string_val: "sun"
        string_val: "lacassine"
        string_val: "brave"
        string_val: "true"
        string_val: "eyes"
        string_val: "beginning"
        string_val: "shirts"
        string_val: "mapa"
        string_val: "m\303\241s"
        string_val: "amigos"
        string_val: "holly"
        string_val: "bandas"
        string_val: "sonoras"
        string_val: "sonning"
        string_val: "gun"
        string_val: "hill"
        string_val: "rd"
        string_val: "metalblood"
        string_val: "gastropub"
        string_val: "bonnie"
        string_val: "mirror"
        string_val: "tartinery"
        string_val: "home"
        string_val: "elk"
        string_val: "rapids"
        string_val: "digster"
        string_val: "pigs"
        string_val: "pray"
        string_val: "seafood"
        string_val: "le"
        string_val: "roy"
        string_val: "tameka"
        string_val: "90"
        string_val: "mirrored"
        string_val: "heavens"
        string_val: "possiable"
        string_val: "wreck"
        string_val: "gravy"
        string_val: "train"
        string_val: "wave"
        string_val: "push"
        string_val: "button"
        string_val: "hamilton"
        string_val: "shell"
        string_val: "breakfast"
        string_val: "certification"
        string_val: "28"
        string_val: "copy"
        string_val: "bury"
        string_val: "january"
        string_val: "2028"
        string_val: "sing"
        string_val: "re"
        string_val: "winning"
        string_val: "church"
        string_val: "savage"
        string_val: "showcase"
        string_val: "thirteen"
        string_val: "boggs"
        string_val: "demonstration"
        string_val: "orange"
        string_val: "michel"
        string_val: "strogoff"
        string_val: "hand"
        string_val: "foggy"
        string_val: "songimvelo"
        string_val: "earls"
        string_val: "lucille"
        string_val: "marina"
        string_val: "ava"
        string_val: "leigh"
        string_val: "grime"
        string_val: "puglia"
        string_val: "very"
        string_val: "gyrls"
        string_val: "holla"
        string_val: "duson"
        string_val: "mohammad"
        string_val: "reza"
        string_val: "shadjarian"
        string_val: "chillin"
        string_val: "falling"
        string_val: "upstairs"
        string_val: "liberalism"
        string_val: "limits"
        string_val: "justice"
        string_val: "tiffany"
        string_val: "sondra"
        string_val: "ms"
        string_val: "udupi"
        string_val: "noah"
        string_val: "wuv"
        string_val: "bernardo"
        string_val: "humor"
        string_val: "scaramouche"
        string_val: "eifel"
        string_val: "tropical"
        string_val: "velvet"
        string_val: "apr"
        string_val: "manack"
        string_val: "montana"
        string_val: "shack"
        string_val: "101"
        string_val: "waiting"
        string_val: "mahatma"
        string_val: "kylie"
        string_val: "minogue"
        string_val: "jaula"
        string_val: "oro"
        string_val: "hit"
        string_val: "las"
        string_val: "aventuras"
        string_val: "zachary"
        string_val: "choclair"
        string_val: "mejor"
        string_val: "m\303\272sica"
        string_val: "bso"
        string_val: "cholame"
        string_val: "guys"
        string_val: "chalkyitsik"
        string_val: "palestine"
        string_val: "whitehouse"
        string_val: "beloved"
        string_val: "kingsley"
        string_val: "common"
        string_val: "atticus"
        string_val: "ross"
        string_val: "electrosafari"
        string_val: "doris"
        string_val: "tulsa"
        string_val: "rough"
        string_val: "guide"
        string_val: "eastern"
        string_val: "europe"
        string_val: "philip"
        string_val: "rolls"
        string_val: "18"
        string_val: "hopeful"
        string_val: "enrique"
        string_val: "iglesias"
        string_val: "kind"
        string_val: "goiano"
        string_val: "bitten"
        string_val: "twice"
        string_val: "pulse"
        string_val: "americana"
        string_val: "47"
        string_val: "52"
        string_val: "mahwah"
        string_val: "2025"
        string_val: "knife"
        string_val: "killed"
        string_val: "ecola"
        string_val: "lebanese"
        string_val: "arizona"
        string_val: "exit"
        string_val: "brooklyn"
        string_val: "sting"
        string_val: "pearblossom"
        string_val: "wanna"
        string_val: "sex"
        string_val: "nike"
        string_val: "running"
        string_val: "tempo"
        string_val: "chapter"
        string_val: "bosnia"
        string_val: "herzegovina"
        string_val: "patti"
        string_val: "hester"
        string_val: "richardson"
        string_val: "trauma"
        string_val: "monkeys"
        string_val: "stripped"
        string_val: "kill"
        string_val: "hi"
        string_val: "brixton"
        string_val: "academy"
        string_val: "kb"
        string_val: "thieving"
        string_val: "magpie"
        string_val: "angela"
        string_val: "au"
        string_val: "radar"
        string_val: "timings"
        string_val: "cracked"
        string_val: "nuts"
        string_val: "caledonian"
        string_val: "record"
        string_val: "then"
        string_val: "came"
        string_val: "abbott"
        string_val: "costello"
        string_val: "meet"
        string_val: "keystone"
        string_val: "kops"
        string_val: "04"
        string_val: "monterey"
        string_val: "mouth"
        string_val: "escape"
        string_val: "godlike"
        string_val: "genius"
        string_val: "fairy"
        string_val: "tales"
        string_val: "curious"
        string_val: "lost"
        string_val: "why"
        string_val: "sons"
        string_val: "turn"
        string_val: "violent"
        string_val: "save"
        string_val: "reverie"
        string_val: "craving"
        string_val: "mac"
        string_val: "cheese"
        string_val: "portland"
        string_val: "lomas"
        string_val: "maalaea"
        string_val: "beyond"
        string_val: "worthy"
        string_val: "izuna"
        string_val: "unemployed"
        string_val: "ninja"
        string_val: "returns"
        string_val: "rage"
        string_val: "ford"
        string_val: "administration"
        string_val: "feather"
        string_val: "noise"
        string_val: "friesland"
        string_val: "ghana"
        string_val: "spooning"
        string_val: "sreekumar"
        string_val: "laidback"
        string_val: "getaway"
        string_val: "tree"
        string_val: "tremont"
        string_val: "nadine"
        string_val: "sherrie"
        string_val: "fl"
        string_val: "lochearn"
        string_val: "son"
        string_val: "apocalisse"
        string_val: "against"
        string_val: "leviathan"
        string_val: "carmella"
        string_val: "illness"
        string_val: "metaphor"
        string_val: "essential"
        string_val: "jacksons"
        string_val: "swine"
        string_val: "alien"
        string_val: "breed"
        string_val: "horror"
        string_val: "continues"
        string_val: "thy"
        string_val: "stethoscope"
        string_val: "walk"
        string_val: "bradner"
        string_val: "other"
        string_val: "least"
        string_val: "scale"
        string_val: "wizardry"
        string_val: "touches"
        string_val: "ground"
        string_val: "cityzen"
        string_val: "arista"
        string_val: "reaching"
        string_val: "als"
        string_val: "het"
        string_val: "liefde"
        string_val: "gaat"
        string_val: "handel"
        string_val: "trey"
        string_val: "gunn"
        string_val: "sacred"
        string_val: "deeth"
        string_val: "growth"
        string_val: "fetish"
        string_val: "giants"
        string_val: "frost"
        string_val: "penermon"
        string_val: "title"
        string_val: "champagne"
        string_val: "showers"
        string_val: "brilliant"
        string_val: "tragic"
        string_val: "echo"
        string_val: "talbot"
        string_val: "mundy"
        string_val: "messenger"
        string_val: "destiny"
        string_val: "stuffed"
        string_val: "peppers"
        string_val: "woodsfield"
        string_val: "lilly"
        string_val: "witch"
        string_val: "257"
        string_val: "cannon"
        string_val: "equatorial"
        string_val: "rillettes"
        string_val: "box"
        string_val: "moon"
        string_val: "light"
        string_val: "kernersville"
        string_val: "greece"
        string_val: "mai"
        string_val: "selim"
        string_val: "us"
        string_val: "suffer"
        string_val: "cross"
        string_val: "uzbekistan"
        string_val: "side"
        string_val: "balko"
        string_val: "fox"
        string_val: "modern"
        string_val: "age"
        string_val: "electric"
        string_val: "boogaloo"
        string_val: "random"
        string_val: "twisted"
        string_val: "searves"
        string_val: "kouglof"
        string_val: "organ"
        string_val: "cactus"
        string_val: "lonergan"
        string_val: "bean"
        string_val: "courts"
        string_val: "natalie"
        string_val: "macmaster"
        string_val: "viajes"
        string_val: "nijinsky"
        string_val: "churrascaria"
        string_val: "talking"
        string_val: "heaven"
        string_val: "doors"
        string_val: "perception"
        string_val: "games"
        string_val: "balinese"
        string_val: "comunas"
        string_val: "ripper"
        string_val: "lifelong"
        string_val: "ambitions"
        string_val: "wi"
        string_val: "centenary"
        string_val: "rugrats"
        string_val: "tmpgenc"
        string_val: "hurts"
        string_val: "pruntytown"
        string_val: "grandparents"
        string_val: "helens"
        string_val: "softly"
        string_val: "kerasotes"
        string_val: "adams"
        string_val: "laurie"
        string_val: "listas"
        string_val: "meredith"
        string_val: "betty"
        string_val: "erika"
        string_val: "fran"
        string_val: "saudi"
        string_val: "arabia"
        string_val: "brunswick"
        string_val: "botanical"
        string_val: "garden"
        string_val: "gie"
        string_val: "tequesta"
        string_val: "print"
        string_val: "legend"
        string_val: "willow"
        string_val: "nona"
        string_val: "gray"
        string_val: "myrtle"
        string_val: "alison"
        string_val: "ouzeri"
        string_val: "fro"
        string_val: "chamberlain"
        string_val: "waits"
        string_val: "picnic"
        string_val: "meze"
        string_val: "roseville"
        string_val: "louisa"
        string_val: "corrine"
        string_val: "selected"
        string_val: "letters"
        string_val: "lovecraft"
        string_val: "sushi"
        string_val: "brucetown"
        string_val: "whistler"
        string_val: "03"
        string_val: "01"
        string_val: "reproductions"
        string_val: "child"
        string_val: "floors"
        string_val: "mighty"
        string_val: "moss"
        string_val: "bobcat"
        string_val: "bite"
        string_val: "isle"
        string_val: "harding"
        string_val: "41"
        string_val: "51"
        string_val: "sixteen"
        string_val: "mill"
        string_val: "bluff"
        string_val: "smit"
        string_val: "radnor"
        string_val: "township"
        string_val: "wv"
        string_val: "ponsonby"
        string_val: "programming"
        string_val: "average"
        string_val: "beer"
        string_val: "lynn"
        string_val: "shore"
        string_val: "randy"
        string_val: "travis"
        string_val: "grass"
        string_val: "farian"
        string_val: "lydia"
        string_val: "mixtape"
        string_val: "1967"
        string_val: "1975"
        string_val: "terrors"
        string_val: "nh"
        string_val: "hat"
        string_val: "ga"
        string_val: "faces"
        string_val: "lao"
        string_val: "united"
        string_val: "paramount"
        string_val: "bank"
        string_val: "forecase"
        string_val: "inverness"
        string_val: "5th"
        string_val: "2031"
        string_val: "tartine"
        string_val: "tunnel"
        string_val: "rats"
        string_val: "rhythm"
        string_val: "reserved"
        string_val: "prefect"
        string_val: "having"
        string_val: "seeley"
        string_val: "fourteenth"
        string_val: "mariah"
        string_val: "elusive"
        string_val: "chanteuse"
        string_val: "oct"
        string_val: "cuyabeno"
        string_val: "experienced"
        string_val: "embrace"
        string_val: "tour"
        string_val: "2013"
        string_val: "budokan"
        string_val: "70s"
        string_val: "preaching"
        string_val: "perverted"
        string_val: "wynonna"
        string_val: "bridge"
        string_val: "starcross"
        string_val: "teenager"
        string_val: "college"
        string_val: "wonderful"
        string_val: "eylem"
        string_val: "yameen"
        string_val: "showstopper"
        string_val: "mary"
        string_val: "jane"
        string_val: "plague"
        string_val: "deepwater"
        string_val: "glue"
        string_val: "lewis"
        string_val: "clark"
        string_val: "russian"
        string_val: "shari"
        string_val: "urbanette"
        string_val: "rabbit"
        string_val: "via"
        string_val: "dolorosa"
        string_val: "redemption"
        string_val: "samurai"
        string_val: "ninth"
        string_val: "oh"
        string_val: "leonville"
        string_val: "sugarville"
        string_val: "janeane"
        string_val: "des"
        string_val: "moines"
        string_val: "bernie"
        string_val: "id"
        string_val: "ironbound"
        string_val: "looney"
        string_val: "tunes"
        string_val: "platinum"
        string_val: "strongest"
        string_val: "instinct"
        string_val: "tera"
        string_val: "exiled"
        string_val: "realm"
        string_val: "arborea"
        string_val: "kitlope"
        string_val: "heritage"
        string_val: "conservancy"
        string_val: "harlem"
        string_val: "hadon"
        string_val: "opar"
        string_val: "sailor"
        string_val: "supers"
        string_val: "died"
        string_val: "paedophilia"
        string_val: "case"
        string_val: "timor"
        string_val: "narodowy"
        string_val: "kushiro"
        string_val: "shitsugen"
        string_val: "haystack"
        string_val: "knight"
        string_val: "newts"
        string_val: "horrible"
        string_val: "bahamas"
        string_val: "swain"
        string_val: "kavanaughs"
        string_val: "gilgamesh"
        string_val: "king"
        string_val: "deli"
        string_val: "steak"
        string_val: "riverfront"
        string_val: "na\303\247\303\243o"
        string_val: "jefferson"
        string_val: "expansion"
        string_val: "belinda"
        string_val: "dena"
        string_val: "syria"
        string_val: "unpleasantness"
        string_val: "bellona"
        string_val: "totally"
        string_val: "paul"
        string_val: "whiteman"
        string_val: "chillout"
        string_val: "diamondville"
        string_val: "most"
        string_val: "necessary"
        string_val: "noveskey"
        string_val: "shot"
        string_val: "understanding"
        string_val: "physics"
        string_val: "bulgaria"
        string_val: "numbers"
        string_val: "saxophone"
        string_val: "supremacy"
        string_val: "ofelia"
        string_val: "think"
        string_val: "freak"
        string_val: "melcher"
        string_val: "madwoman"
        string_val: "enemy"
        string_val: "screened"
        string_val: "fourteen"
        string_val: "robbie"
        string_val: "hostel"
        string_val: "chandra"
        string_val: "noelle"
        string_val: "underneath"
        string_val: "engine"
        string_val: "hog"
        string_val: "fry"
        string_val: "interview"
        string_val: "documentary"
        string_val: "conspiracy"
        string_val: "louisiana"
        string_val: "300"
        string_val: "march"
        string_val: "cluster"
        string_val: "computing"
        string_val: "fallen"
        string_val: "milagros"
        string_val: "pocono"
        string_val: "dean"
        string_val: "tailor"
        string_val: "london"
        string_val: "amor"
        string_val: "wheatley"
        string_val: "bang"
        string_val: "lot"
        string_val: "pediatric"
        string_val: "oncology"
        string_val: "nursing"
        string_val: "croix"
        string_val: "horses"
        string_val: "dubstep"
        string_val: "dangles"
        string_val: "dirty"
        string_val: "rainy"
        string_val: "wren"
        string_val: "riddim"
        string_val: "driven"
        string_val: "54"
        string_val: "humanity"
        string_val: "letha"
        string_val: "things"
        string_val: "farmingdale"
        string_val: "entitled"
        string_val: "period"
        string_val: "cyborg"
        string_val: "teide"
        string_val: "viroqua"
        string_val: "fernwood"
        string_val: "mt"
        string_val: "geese"
        string_val: "sensation"
        string_val: "morgan"
        string_val: "primitive"
        string_val: "santikos"
        string_val: "jungo"
        string_val: "toxic"
        string_val: "avenger"
        string_val: "comfort"
        string_val: "friends"
        string_val: "players"
        string_val: "pilgrims"
        string_val: "rayne"
        string_val: "taiwan"
        string_val: "rainfall"
        string_val: "willimantic"
        string_val: "kurious"
        string_val: "jorge"
        string_val: "synth"
        string_val: "illinois"
        string_val: "lakes"
        string_val: "turkmenistan"
        string_val: "bon"
        string_val: "grunge"
        string_val: "\303\245land"
        string_val: "dock"
        string_val: "norman"
        string_val: "conway"
        string_val: "twitty"
        string_val: "tchaikovsky"
        string_val: "occasional"
        string_val: "bpm"
        string_val: "cat"
        string_val: "walks"
        string_val: "walls"
        string_val: "stumble"
        string_val: "repeat"
        string_val: "burnout"
        string_val: "ultimate"
        string_val: "drag"
        string_val: "race"
        string_val: "alamo"
        string_val: "drafthouse"
        string_val: "cassie"
        string_val: "eyota"
        string_val: "hawaii"
        string_val: "desert"
        string_val: "column"
        string_val: "42"
        string_val: "oregon"
        string_val: "rosana"
        string_val: "canteen"
        string_val: "alley"
        string_val: "samoa"
        string_val: "montserrat"
        string_val: "79"
        string_val: "policemen"
        string_val: "sanibel"
        string_val: "manadonese"
        string_val: "brunch"
        string_val: "alejandro"
        string_val: "fern\303\241ndez"
        string_val: "chamber"
        string_val: "lest"
        string_val: "forget"
        string_val: "guitar"
        string_val: "cajah"
        string_val: "coffee"
        string_val: "sleeps"
        string_val: "sonya"
        string_val: "rebekah"
        string_val: "taneyamagahara"
        string_val: "sword"
        string_val: "lictor"
        string_val: "diann"
        string_val: "smile"
        string_val: "suitcase"
        string_val: "roses"
        string_val: "agua"
        string_val: "sal"
        string_val: "uproar"
        string_val: "milas"
        string_val: "poli"
        string_val: "bluegrass"
        string_val: "masala"
        string_val: "2034"
        string_val: "casey"
        string_val: "chavez"
        string_val: "lucinda"
        string_val: "karina"
        string_val: "7th"
        string_val: "burst"
        string_val: "outside"
        string_val: "syndicate"
        string_val: "millicent"
        string_val: "electronic"
        string_val: "economic"
        string_val: "association"
        string_val: "deeds"
        string_val: "finn"
        string_val: "maccool"
        string_val: "robin"
        string_val: "trower"
        string_val: "feminist"
        string_val: "wyoming"
        string_val: "presskopf"
        string_val: "nattbuss"
        string_val: "807"
        string_val: "el"
        string_val: "en"
        string_val: "emo"
        string_val: "sugarfoot"
        string_val: "epleys"
        string_val: "sandwich"
        string_val: "dared"
        string_val: "flag"
        string_val: "brass"
        string_val: "bound"
        string_val: "trunk"
        string_val: "experiment"
        string_val: "decaturville"
        string_val: "castolon"
        string_val: "territories"
        string_val: "melba"
        string_val: "anderson"
        string_val: "haugan"
        string_val: "justified"
        string_val: "astonishing"
        string_val: "octavian"
        string_val: "traitor"
        string_val: "kingdom"
        string_val: "waves"
        string_val: "afdlin"
        string_val: "shauki"
        string_val: "timerider"
        string_val: "lyle"
        string_val: "swann"
        string_val: "kan"
        string_val: "mikami"
        string_val: "pre"
        string_val: "junkies"
        string_val: "suu"
        string_val: "complex"
        string_val: "between"
        string_val: "forecasted"
        string_val: "epiphany"
        string_val: "pizza"
        string_val: "astor"
        string_val: "massachusetts"
        string_val: "molly"
        string_val: "mcguire"
        string_val: "talks"
        string_val: "kreator"
        string_val: "enemies"
        string_val: "frontier"
        string_val: "marshal"
        string_val: "souls"
        string_val: "temperance"
        string_val: "tortured"
        string_val: "berville"
        string_val: "political"
        string_val: "pw"
        string_val: "gill"
        string_val: "deacon"
        string_val: "chichi"
        string_val: "mysterious"
        string_val: "carpathians"
        string_val: "bride"
        string_val: "elida"
        string_val: "vega"
        string_val: "alta"
        string_val: "smear"
        string_val: "montverde"
        string_val: "trop\303\251zienne"
        string_val: "shopping"
        string_val: "spree"
        string_val: "prejudice"
        string_val: "bearmouth"
        string_val: "hellboy"
        string_val: "troll"
        string_val: "mcmurray"
        string_val: "seventeenth"
        string_val: "marjorie"
        string_val: "vasquez"
        string_val: "martina"
        string_val: "ludden"
        string_val: "apothecary"
        string_val: "rx"
        string_val: "pagosa"
        string_val: "romanian"
        string_val: "stle"
        string_val: "cusine"
        string_val: "trussville"
        string_val: "scholarmate"
        string_val: "immortals"
        string_val: "bullets"
        string_val: "assign"
        string_val: "yale"
        string_val: "ramble"
        string_val: "teens"
        string_val: "23"
        string_val: "fimd"
        string_val: "bhoot"
        string_val: "eric"
        string_val: "refugee"
        string_val: "sleeping"
        string_val: "sc"
        string_val: "chrome"
        string_val: "alloway"
        string_val: "opening"
        string_val: "bible"
        string_val: "niger"
        string_val: "surf"
        string_val: "taco"
        string_val: "uniontown"
        string_val: "beast"
        string_val: "shouted"
        string_val: "signals"
        string_val: "belief"
        string_val: "england"
        string_val: "wallington"
        string_val: "swaziland"
        string_val: "polymer"
        string_val: "jain"
        string_val: "goodbye"
        string_val: "tetsuya"
        string_val: "komuro"
        string_val: "hide"
        string_val: "benin"
        string_val: "upbuilding"
        string_val: "discourses"
        string_val: "1844"
        string_val: "supper"
        string_val: "ours"
        string_val: "phinally"
        string_val: "phamous"
        string_val: "gamblers"
        string_val: "plaid"
        string_val: "retina"
        string_val: "castles"
        string_val: "clay"
        string_val: "remains"
        string_val: "favorites"
        string_val: "willie"
        string_val: "nelson"
        string_val: "spinnin"
        string_val: "records"
        string_val: "taking"
        string_val: "flight"
        string_val: "847"
        string_val: "uli"
        string_val: "derickson"
        string_val: "thornville"
        string_val: "link"
        string_val: "tempunauts"
        string_val: "microsoft"
        string_val: "safety"
        string_val: "scanner"
        string_val: "poplar"
        string_val: "unholy"
        string_val: "coverage"
        string_val: "minami"
        string_val: "alps"
        string_val: "koma"
        string_val: "prefectural"
        string_val: "lock"
        string_val: "inniswold"
        string_val: "blackbox"
        string_val: "paper"
        string_val: "doll"
        string_val: "historical"
        string_val: "aransas"
        string_val: "pass"
        string_val: "seventeen"
        string_val: "international"
        string_val: "bilingualism"
        string_val: "online"
        string_val: "drowning"
        string_val: "anjo"
        string_val: "hollidaysburg"
        string_val: "twinkie"
        string_val: "squad"
        string_val: "budayeen"
        string_val: "nights"
        string_val: "parents"
        string_val: "thousand"
        string_val: "lies"
        string_val: "keyes"
        string_val: "summit"
        string_val: "rustic"
        string_val: "inn"
        string_val: "members"
        string_val: "nappanee"
        string_val: "zambia"
        string_val: "emanuel"
        string_val: "kiriakou"
        string_val: "llegando"
        string_val: "casa"
        string_val: "rileys"
        string_val: "crabfish"
        string_val: "sleep"
        string_val: "machine"
        string_val: "rainforest"
        string_val: "mickey"
        string_val: "birth"
        string_val: "emre"
        string_val: "aydin"
        string_val: "happy"
        string_val: "lunacy"
        string_val: "latest"
        string_val: "episode"
        string_val: "chu"
        string_val: "philly"
        string_val: "clam"
        string_val: "cake"
        string_val: "ginestrata"
        string_val: "shenandoah"
        string_val: "heights"
        string_val: "cookie"
        string_val: "selena"
        string_val: "atop"
        string_val: "underwood"
        string_val: "writings"
        string_val: "mercedes"
        string_val: "cimarron"
        string_val: "lpaying"
        string_val: "bryan"
        string_val: "emily"
        string_val: "soulblighter"
        string_val: "partners"
        string_val: "action"
        string_val: "connie"
        string_val: "madeline"
        string_val: "shadow"
        string_val: "shake"
        string_val: "beef"
        string_val: "indestructible"
        string_val: "nozomi"
        string_val: "tsuji"
        string_val: "ritchie"
        string_val: "valens"
        string_val: "virales"
        string_val: "siempre"
        string_val: "polite"
        string_val: "scrapple"
        string_val: "harriett"
        string_val: "deanne"
        string_val: "14th"
        string_val: "hridaynath"
        string_val: "mangeshkar"
        string_val: "stone"
        string_val: "cierra"
        string_val: "puerta"
        string_val: "claudine"
        string_val: "longet"
        string_val: "palylist"
        string_val: "isn"
        string_val: "engadine"
        string_val: "joy"
        string_val: "division"
        string_val: "bbc"
        string_val: "mclaurin"
        string_val: "key"
        string_val: "word"
        string_val: "mysteries"
        string_val: "nightbirds"
        string_val: "nantucket"
        string_val: "crocus"
        string_val: "ian"
        string_val: "mandaean"
        string_val: "sudden"
        string_val: "rainstorm"
        string_val: "merry"
        string_val: "sisters"
        string_val: "fate"
        string_val: "wand"
        string_val: "wagner"
        string_val: "todays"
        string_val: "flic"
        string_val: "beverly"
        string_val: "kurt"
        string_val: "aguila"
        string_val: "patetown"
        string_val: "economy"
        string_val: "silence"
        string_val: "lambs"
        string_val: "playmaker"
        string_val: "football"
        string_val: "acquacotta"
        string_val: "central"
        string_val: "republic"
        string_val: "baraga"
        string_val: "bright"
        string_val: "elvis"
        string_val: "lemonade"
        string_val: "poetry"
        string_val: "own"
        string_val: "voices"
        string_val: "landmark"
        string_val: "were"
        string_val: "tear"
        string_val: "apart"
        string_val: "deborah"
        string_val: "bertha"
        string_val: "screamplay"
        string_val: "manning"
        string_val: "ukraine"
        string_val: "egypt"
        string_val: "treasury"
        string_val: "2027"
        string_val: "iowa"
        string_val: "applied"
        string_val: "linguistics"
        string_val: "picks"
        string_val: "bowling"
        string_val: "dana"
        string_val: "caddo"
        string_val: "bock"
        string_val: "unicorn"
        string_val: "ncaa"
        string_val: "2k3"
        string_val: "breath"
        string_val: "outdoor"
        string_val: "papeton"
        string_val: "cenizo"
        string_val: "captain"
        string_val: "kronos"
        string_val: "air"
        string_val: "cuan"
        string_val: "dubh"
        string_val: "drilseach"
        string_val: "emma"
        string_val: "wood"
        string_val: "friona"
        string_val: "brewing"
        string_val: "puerto"
        string_val: "rico"
        string_val: "zez\303\251"
        string_val: "di"
        string_val: "camargo"
        string_val: "luciano"
        string_val: "valley"
        string_val: "covenant"
        string_val: "fusion"
        string_val: "fest"
        string_val: "overton"
        string_val: "palisades"
        string_val: "testing"
        string_val: "anywhere"
        string_val: "decades"
        string_val: "imposter"
        string_val: "russell"
        string_val: "econfina"
        string_val: "ri"
        string_val: "innocence"
        string_val: "2008"
        string_val: "louis"
        string_val: "wolfe"
        string_val: "gilbert"
        string_val: "cleaning"
        string_val: "loveday"
        string_val: "trials"
        string_val: "trying"
        string_val: "solution"
        string_val: "business"
        string_val: "ethics"
        string_val: "kosovo"
        string_val: "mon"
        string_val: "monster"
        string_val: "mash"
        string_val: "than"
        string_val: "counting"
        string_val: "rosaries"
        string_val: "flies"
        string_val: "1994"
        string_val: "2009"
        string_val: "jazzy"
        string_val: "president"
        string_val: "empanada"
        string_val: "jemez"
        string_val: "rila"
        string_val: "elinor"
        string_val: "crystal"
        string_val: "turner"
        string_val: "nita"
        string_val: "german"
        string_val: "torrey"
        string_val: "pines"
        string_val: "sixteenth"
        string_val: "pillar"
        string_val: "education"
        string_val: "chemical"
        string_val: "engineers"
        string_val: "del"
        string_val: "espa\303\261a"
        string_val: "known"
        string_val: "better"
        string_val: "bb"
        string_val: "bunce"
        string_val: "lafe"
        string_val: "wing"
        string_val: "cappella"
        string_val: "angry"
        string_val: "bulat"
        string_val: "schalwowitsch"
        string_val: "okudschawa"
        string_val: "retro"
        string_val: "quebeck"
        string_val: "removers"
        string_val: "tesh"
        string_val: "friendesemana"
        string_val: "32"
        string_val: "fenton"
        string_val: "change"
        string_val: "lapponia"
        string_val: "flamenco"
        string_val: "madagascar"
        string_val: "scouse"
        string_val: "git"
        string_val: "speed"
        string_val: "thrills"
        string_val: "mojave"
        string_val: "phone"
        string_val: "booth"
        string_val: "rattus"
        string_val: "roundhouse"
        string_val: "t\303\251"
        string_val: "para"
        string_val: "tres"
        string_val: "crazy"
        string_val: "hostile"
        string_val: "waters"
        string_val: "harper"
        string_val: "order"
        string_val: "wings"
        string_val: "zena"
        string_val: "passover"
        string_val: "hurry"
        string_val: "garrison"
        string_val: "emoji"
        string_val: "retrovisor"
        string_val: "188"
        string_val: "zimbabwe"
        string_val: "wallis"
        string_val: "futuna"
        string_val: "inwood"
        string_val: "207th"
        string_val: "gisela"
        string_val: "watcher"
        string_val: "rivers"
        string_val: "religion"
        string_val: "sexy"
        string_val: "d\303\255as"
        string_val: "felices"
        string_val: "reggaeton"
        string_val: "lambertville"
        string_val: "india"
        string_val: "mason"
        string_val: "dixon"
        string_val: "tsidii"
        string_val: "loka"
        string_val: "drumline"
        string_val: "texas"
        string_val: "receipt"
        string_val: "ep"
        string_val: "aubrey"
        string_val: "did"
        string_val: "highs"
        string_val: "mid"
        string_val: "sixties"
        string_val: "bigger"
        string_val: "endangered"
        string_val: "species"
        string_val: "reverse"
        string_val: "medal"
        string_val: "tokelau"
        string_val: "valarie"
        string_val: "caroline"
        string_val: "56"
        string_val: "soldier"
        string_val: "pond"
        string_val: "stunt"
        string_val: "santa"
        string_val: "monica"
        string_val: "hannah"
        string_val: "miley"
        string_val: "cyrus"
        string_val: "twitches"
        string_val: "simon"
        string_val: "schuster"
        string_val: "encyclopedia"
        string_val: "dinosaurs"
        string_val: "prehistoric"
        string_val: "creatures"
        string_val: "nick"
        string_val: "sylvia"
        string_val: "plath"
        string_val: "steps"
        string_val: "independent"
        string_val: "clue"
        string_val: "super"
        string_val: "dave"
        string_val: "bickler"
        string_val: "warren"
        string_val: "freund"
        string_val: "luis"
        string_val: "fonsi"
        string_val: "lamy"
        string_val: "fe"
        string_val: "hero"
        string_val: "halifax"
        string_val: "disaster"
        string_val: "mummy"
        string_val: "cortelyou"
        string_val: "barberville"
        string_val: "99"
        string_val: "mongolia"
        string_val: "archivist"
        string_val: "logic"
        string_val: "sense"
        string_val: "crew"
        string_val: "piqua"
        string_val: "pearl"
        string_val: "remembrance"
        string_val: "rio"
        string_val: "idaho"
        string_val: "dekalb"
        string_val: "indifferent"
        string_val: "aria"
        string_val: "mascotte"
        string_val: "prospect"
        string_val: "whitby"
        string_val: "blaine"
        string_val: "bugs"
        string_val: "bunny"
        string_val: "nips"
        string_val: "nigeria"
        string_val: "seed"
        string_val: "chucky"
        string_val: "josefina"
        string_val: "pla"
        string_val: "isabelle"
        string_val: "gamesradar"
        string_val: "nevada"
        string_val: "hahnville"
        string_val: "tuvalu"
        string_val: "woodchuck"
        string_val: "chuck"
        string_val: "matters"
        string_val: "comer"
        string_val: "many"
        string_val: "germania"
        string_val: "movietimes"
        string_val: "ochopee"
        string_val: "pelican"
        string_val: "blandings"
        string_val: "inlet"
        string_val: "lebanon"
        string_val: "2035"
        string_val: "seeing"
        string_val: "shown"
        string_val: "yauch"
        string_val: "biggest"
        string_val: "loser"
        string_val: "granbury"
        string_val: "chronicles"
        string_val: "druss"
        string_val: "roman"
        string_val: "tkk"
        string_val: "betances"
        string_val: "tamagotchi"
        string_val: "64"
        string_val: "minna"
        string_val: "those"
        string_val: "gods"
        string_val: "virginia"
        string_val: "technicolor"
        string_val: "czech"
        string_val: "everytime"
        string_val: "doolittle"
        string_val: "whispers"
        string_val: "graveyard"
        string_val: "visual"
        string_val: "audio"
        string_val: "sensory"
        string_val: "sherlock"
        string_val: "holmes"
        string_val: "wayside"
        string_val: "targeted"
        string_val: "clapton"
        string_val: "round"
        string_val: "gena"
        string_val: "woodcliff"
        string_val: "murray"
        string_val: "hut"
        string_val: "mirrorshades"
        string_val: "pot\303\251e"
        string_val: "solitude"
        string_val: "hello"
        string_val: "cats"
        string_val: "luck"
        string_val: "expressive"
        string_val: "processing"
        string_val: "mis"
        string_val: "ni\303\261os"
        string_val: "30"
        string_val: "iii"
        string_val: "carnik"
        string_val: "boreas"
        string_val: "mayotte"
        string_val: "tembe"
        string_val: "jacinto"
        string_val: "scheudle"
        string_val: "palacio"
        string_val: "grisly"
        string_val: "flesh"
        string_val: "bone"
        string_val: "underground"
        string_val: "attell"
        string_val: "nuclear"
        string_val: "blast"
        string_val: "novelties"
        string_val: "slimm"
        string_val: "cutta"
        string_val: "calhoun"
        string_val: "heroquest"
        string_val: "legacy"
        string_val: "sorasil"
        string_val: "tanintharyi"
        string_val: "deus"
        string_val: "deceptor"
        string_val: "resource"
        string_val: "harris"
        string_val: "uruguay"
        string_val: "213"
        string_val: "scratchy"
        string_val: "porch"
        string_val: "cohocton"
        string_val: "wy"
        string_val: "sunil"
        string_val: "santha"
        string_val: "grant"
        string_val: "osmanthus"
        string_val: "rejoicing"
        string_val: "tonopah"
        string_val: "hillary"
        string_val: "banks"
        string_val: "spears"
        string_val: "butterfly"
        string_val: "fabes"
        string_val: "vl"
        string_val: "mike"
        string_val: "dcode2016"
        string_val: "marcie"
        string_val: "clink"
        string_val: "senegal"
        string_val: "juliff"
        string_val: "bucatini"
        string_val: "tomohisa"
        string_val: "yamashita"
        string_val: "village"
        string_val: "japan"
        string_val: "rimsky"
        string_val: "korsakoffee"
        string_val: "aug"
        string_val: "3rd"
        string_val: "guts"
        string_val: "chopin"
        string_val: "niceville"
        string_val: "francisville"
        string_val: "italian"
        string_val: "hutchings"
        string_val: "single"
        string_val: "branton"
        string_val: "mellow"
        string_val: "fly"
        string_val: "roadhouse"
        string_val: "antarctica"
        string_val: "calakmul"
        string_val: "biosphere"
        string_val: "angel"
        string_val: "sweeney"
        string_val: "goethe"
        string_val: "culver"
        string_val: "thyme"
        string_val: "brothers"
        string_val: "karamazov"
        string_val: "hoping"
        string_val: "2029"
        string_val: "feature"
        string_val: "aflame"
        string_val: "crowd"
        string_val: "study"
        string_val: "mind"
        string_val: "tenor"
        string_val: "wore"
        string_val: "tapshoes"
        string_val: "halley"
        string_val: "mrs"
        string_val: "ry\305\215"
        string_val: "yamazaki"
        string_val: "clem"
        string_val: "burke"
        string_val: "macedonia"
        string_val: "cape"
        string_val: "unit"
        string_val: "burrito"
        string_val: "chad"
        string_val: "landing"
        string_val: "proof"
        string_val: "nam"
        string_val: "kading"
        string_val: "protected"
        string_val: "minestrone"
        string_val: "griffin"
        string_val: "ne"
        string_val: "according"
        string_val: "paris"
        string_val: "robinson"
        string_val: "02"
        string_val: "39"
        string_val: "jarbidge"
        string_val: "tx"
        string_val: "cashel"
        string_val: "palace"
        string_val: "funtime"
        string_val: "activity"
        string_val: "odessa"
        string_val: "05"
        string_val: "shelter"
        string_val: "glimpses"
        string_val: "elisabeth"
        string_val: "gainesville"
        string_val: "register"
        string_val: "claudia"
        string_val: "imelda"
        string_val: "rainelle"
        string_val: "druid"
        string_val: "regional"
        string_val: "thing"
        string_val: "smelt"
        string_val: "solomon"
        string_val: "embers"
        string_val: "darkest"
        string_val: "jennifer"
        string_val: "lopez"
        string_val: "lilacs"
        string_val: "worth"
        string_val: "inheritors"
        string_val: "niue"
        string_val: "balloon"
        string_val: "sencha"
        string_val: "soupe"
        string_val: "variation"
        string_val: "plants"
        string_val: "domestication"
        string_val: "polygon"
        string_val: "shores"
        string_val: "together"
        string_val: "deadly"
        string_val: "skies"
        string_val: "drift"
        string_val: "unmooring"
        string_val: "military"
        string_val: "limit"
        string_val: "umizaru"
        string_val: "princess"
        string_val: "biology"
        string_val: "issues"
        string_val: "approach"
        string_val: "fertile"
        string_val: "sure"
        string_val: "thirayum"
        string_val: "theeravum"
        string_val: "nathaniel"
        string_val: "fludd"
        string_val: "beastologist"
        string_val: "monks"
        string_val: "thelema"
        string_val: "charles"
        string_val: "trifecta"
        string_val: "scandinavian"
        string_val: "grenada"
        string_val: "lidell"
        string_val: "townsell"
        string_val: "esenciales"
        string_val: "set"
        string_val: "thames"
        string_val: "coleslaw"
        string_val: "44"
        string_val: "58"
        string_val: "pirates"
        string_val: "vengeance"
        string_val: "chowchilla"
        string_val: "bullet"
        string_val: "target"
        string_val: "kin"
        string_val: "splendido"
        string_val: "occoquan"
        string_val: "sign"
        string_val: "saturn"
        string_val: "highlands"
        string_val: "paisley"
        string_val: "yemen"
        string_val: "antisleep"
        string_val: "persian"
        string_val: "ex"
        string_val: "husband"
        string_val: "projections"
        string_val: "allardt"
        string_val: "canada"
        string_val: "meets"
        string_val: "movement"
        string_val: "jolley"
        string_val: "macclenny"
        string_val: "lavender"
        string_val: "lace"
        string_val: "entre"
        string_val: "um"
        string_val: "coco"
        string_val: "adeus"
        string_val: "kenneth"
        string_val: "jethro"
        string_val: "burns"
        string_val: "soundscapes"
        string_val: "pimpernel"
        string_val: "rosemary"
        string_val: "schultz"
        string_val: "maldives"
        string_val: "sichuan"
        string_val: "avant"
        string_val: "sessions"
        string_val: "wine"
        string_val: "fernley"
        string_val: "princesas"
        string_val: "cienega"
        string_val: "section"
        string_val: "blag"
        string_val: "dahlia"
        string_val: "pura"
        string_val: "vida"
        string_val: "strayhorn"
        string_val: "riley"
        string_val: "anston"
        string_val: "shine"
        string_val: "gillan"
        string_val: "creeper"
        string_val: "colic"
        string_val: "jim"
        string_val: "peace"
        string_val: "thirty"
        string_val: "moores"
        string_val: "robinette"
        string_val: "crime"
        string_val: "punishment"
        string_val: "suburbia"
        string_val: "beijing"
        string_val: "huanying"
        string_val: "moment"
        string_val: "lousy"
        string_val: "slice"
        string_val: "choclo"
        string_val: "awful"
        string_val: "afghanistan"
        string_val: "kiss"
        string_val: "hironobu"
        string_val: "kageyama"
        string_val: "baila"
        string_val: "westfield"
        string_val: "moron"
        string_val: "ace"
        string_val: "spades"
        string_val: "beatmaster"
        string_val: "given"
        string_val: "unbelievable"
        string_val: "botswana"
        string_val: "troubles"
        string_val: "catch"
        string_val: "em"
        string_val: "doctors"
        string_val: "cia"
        string_val: "factbook"
        string_val: "persecution"
        string_val: "jews"
        string_val: "1933"
        string_val: "45"
        string_val: "tokyo"
        string_val: "detroit"
        string_val: "peaceful"
        string_val: "geographic"
        string_val: "howling"
        string_val: "mir"
        string_val: "trinidad"
        string_val: "tobago"
        string_val: "owl"
        string_val: "eve"
        string_val: "olution"
        string_val: "clean"
        string_val: "sober"
        string_val: "france"
        string_val: "paducah"
        string_val: "irving"
        string_val: "berlin"
        string_val: "dishwashing"
        string_val: "unraveling"
        string_val: "gary"
        string_val: "harsh"
        string_val: "tarass"
        string_val: "boulba"
        string_val: "path"
        string_val: "aurora"
        string_val: "federated"
        string_val: "states"
        string_val: "micronesia"
        string_val: "sunshine"
        string_val: "monkey"
        string_val: "tiger"
        string_val: "javine"
        string_val: "hylton"
        string_val: "suicide"
        string_val: "pok\303\251mon"
        string_val: "victini"
        string_val: "reshiram"
        string_val: "zekrom"
        string_val: "garrett"
        string_val: "animal"
        string_val: "maryanne"
        string_val: "per"
        string_val: "yngve"
        string_val: "ohlin"
        string_val: "somalia"
        string_val: "killing"
        string_val: "fields"
        string_val: "providence"
        string_val: "provide"
        string_val: "dawn"
        string_val: "tira"
        string_val: "pax"
        string_val: "warrior"
        string_val: "kenmore"
        string_val: "nineteen"
        string_val: "argusville"
        string_val: "burkina"
        string_val: "glades"
        string_val: "myths"
        string_val: "hindus"
        string_val: "buddhists"
        string_val: "timeline"
        string_val: "lime"
        string_val: "caledonia"
        string_val: "rotem"
        string_val: "singers"
        string_val: "artifacts"
        string_val: "liechtenstein"
        string_val: "artani"
        string_val: "continued"
        string_val: "sealed"
        string_val: "swan"
        string_val: "aragon"
        string_val: "offroad"
        string_val: "legends"
        string_val: "fever"
        string_val: "friend"
        string_val: "isabella"
        string_val: "hahntown"
        string_val: "turf"
        string_val: "alfred"
        string_val: "cradle"
        string_val: "robbers"
        string_val: "fruit"
        string_val: "politics"
        string_val: "share"
        string_val: "epic"
        string_val: "wall"
        string_val: "sound"
        string_val: "grim"
        string_val: "skunk"
        string_val: "tun"
        string_val: "shawna"
        string_val: "michelle"
        string_val: "lizzie"
        string_val: "maro"
        string_val: "kim"
        string_val: "hyun"
        string_val: "joong"
        string_val: "seek"
        string_val: "destroy"
        string_val: "coulee"
        string_val: "rose"
        string_val: "bobby"
        string_val: "dwele"
        string_val: "marguerite"
        string_val: "eurovision"
        string_val: "naches"
        string_val: "sierra"
        string_val: "leone"
        string_val: "greek"
        string_val: "banana"
        string_val: "puccini"
        string_val: "jacqueline"
        string_val: "deanna"
        string_val: "carpenter"
        string_val: "uncas"
        string_val: "stream"
        string_val: "drugs"
        string_val: "jesus"
        string_val: "christ"
        string_val: "nails"
        string_val: "whitewater"
        string_val: "ellen"
        string_val: "lentil"
        string_val: "anything"
        string_val: "skatepark"
        string_val: "punks"
        string_val: "sunset"
        string_val: "truly"
        string_val: "warped"
        string_val: "download"
        string_val: "eagle"
        string_val: "hallwood"
        string_val: "jean"
        string_val: "lafitte"
        string_val: "blackberry"
        string_val: "chan"
        string_val: "whee"
        string_val: "macao"
        string_val: "secretary"
        string_val: "colour"
        string_val: "romain"
        string_val: "mcgill"
        string_val: "snuffy"
        string_val: "walden"
        string_val: "billboard"
        string_val: "finalists"
        string_val: "prefer"
        string_val: "teh"
        string_val: "opus"
        string_val: "butcher"
        string_val: "boy"
        string_val: "anchor"
        string_val: "low"
        string_val: "tide"
        string_val: "enid"
        string_val: "rom\303\241ntica"
        string_val: "due"
        string_val: "homo"
        string_val: "handbook"
        string_val: "carlos"
        string_val: "refugio"
        string_val: "cherry"
        string_val: "treatment"
        string_val: "fork"
        string_val: "mari"
        string_val: "jailbird"
        string_val: "terror"
        string_val: "visit"
        string_val: "got"
        string_val: "bag"
        string_val: "buick"
        string_val: "roars"
        string_val: "powersville"
        string_val: "guam"
        string_val: "working"
        string_val: "homer"
        string_val: "beethoven"
        string_val: "lives"
        string_val: "blythewood"
        string_val: "bouchon"
        string_val: "dynamite"
        string_val: "elegant"
        string_val: "rumyantsev"
        string_val: "telepathic"
        string_val: "experiences"
        string_val: "baladas"
        string_val: "rom\303\241nticas"
        string_val: "stu"
        string_val: "rak"
        string_val: "biszewilo"
        string_val: "airi"
        string_val: "suzuki"
        string_val: "dough"
        string_val: "boden"
        string_val: "11th"
        string_val: "mommy"
        string_val: "teddy"
        string_val: "screen"
        string_val: "souvenirs"
        string_val: "romania"
        string_val: "christian"
        string_val: "susana"
        string_val: "abby"
        string_val: "zaleski"
        string_val: "careless"
        string_val: "administrative"
        string_val: "behavior"
        string_val: "immortal"
        string_val: "prix"
        string_val: "searchlights"
        string_val: "belhaven"
        string_val: "galactic"
        string_val: "healer"
        string_val: "tribeca"
        string_val: "wilda"
        string_val: "jacklyn"
        string_val: "rupee"
        string_val: "ultra"
        string_val: "crown"
        string_val: "burgers"
        string_val: "compton"
        string_val: "millions"
        string_val: "langdon"
        string_val: "francesco"
        string_val: "gregori"
        string_val: "mole"
        string_val: "roxy"
        string_val: "onnaam"
        string_val: "muhurtham"
        string_val: "elsmore"
        string_val: "luxembourg"
        string_val: "cure"
        string_val: "lightning"
        string_val: "johto"
        string_val: "journeys"
        string_val: "lloyd"
        string_val: "anthems"
        string_val: "makers"
        string_val: "verdi"
        string_val: "seabrook"
        string_val: "blonde"
        string_val: "peking"
        string_val: "viktor"
        string_val: "merjanov"
        string_val: "wylliesburg"
        string_val: "returned"
        string_val: "operaci\303\263n"
        string_val: "bikini"
        string_val: "paradise"
        string_val: "heavenly"
        string_val: "spiderman"
        string_val: "rings"
        string_val: "postman"
        string_val: "amityville"
        string_val: "mu"
        string_val: "ko"
        string_val: "phetra"
        string_val: "professionals"
        string_val: "dora"
        string_val: "rainbow"
        string_val: "written"
        string_val: "natsu"
        string_val: "mini"
        string_val: "berryz"
        string_val: "phishing"
        string_val: "leoti"
        string_val: "pillars"
        string_val: "wisdom"
        string_val: "hiphop"
        string_val: "loco"
        string_val: "sailing"
        string_val: "seas"
        string_val: "nile"
        string_val: "shawn"
        string_val: "lane"
        string_val: "moved"
        string_val: "cena"
        string_val: "dumping"
        string_val: "survival"
        string_val: "primavera"
        string_val: "barcelona"
        string_val: "anna"
        string_val: "semenovich"
        string_val: "olive"
        string_val: "herkimer"
        string_val: "liver"
        string_val: "onions"
        string_val: "bessie"
        string_val: "antonia"
        string_val: "eighteenth"
        string_val: "ut"
        string_val: "elma"
        string_val: "hocking"
        string_val: "premiering"
        string_val: "pachangueo"
        string_val: "irma"
        string_val: "pig"
        string_val: "scrolls"
        string_val: "clinchco"
        string_val: "shawnna"
        string_val: "eletro"
        string_val: "br"
        string_val: "austin"
        string_val: "09"
        string_val: "funny"
        string_val: "split"
        string_val: "difference"
        string_val: "lit"
        string_val: "lights"
        string_val: "richfield"
        string_val: "cock"
        string_val: "bull"
        string_val: "caravan"
        string_val: "across"
        string_val: "line"
        string_val: "municipal"
        string_val: "ealing"
        string_val: "archie"
        string_val: "da"
        string_val: "ghetto"
        string_val: "hardcastle"
        string_val: "sulle"
        string_val: "sathya"
        string_val: "xandee"
        string_val: "georgiev"
        string_val: "kalica"
        string_val: "gillespie"
        string_val: "gayle"
        string_val: "fisn"
        string_val: "licorice"
        string_val: "mckechnie"
        string_val: "wanda"
        string_val: "honor"
        string_val: "carnot"
        string_val: "finland"
        string_val: "dangers"
        string_val: "canadian"
        string_val: "mounted"
        string_val: "hiptronix"
        string_val: "polka"
        string_val: "medley"
        string_val: "cuba"
        string_val: "jency"
        string_val: "anthony"
        string_val: "mozart"
        string_val: "todesfalle"
        string_val: "cosby"
        string_val: "cosnarati"
        string_val: "emergency"
        string_val: "lea"
        string_val: "chair"
        string_val: "bg"
        string_val: "knocc"
        string_val: "rapcaviar"
        string_val: "tioga"
        string_val: "albino"
        string_val: "blacksheep"
        string_val: "yuna"
        string_val: "ito"
        string_val: "rods"
        string_val: "shows"
        string_val: "jonny"
        string_val: "buckland"
        string_val: "buzz"
        string_val: "koontz"
        string_val: "passion"
        string_val: "foucault"
        string_val: "alok"
        string_val: "walpole"
        string_val: "flow"
        string_val: "faroe"
        string_val: "hound"
        string_val: "dog"
        string_val: "miami"
        string_val: "covered"
        string_val: "wagon"
        string_val: "personality"
        string_val: "social"
        string_val: "berry"
        string_val: "elrow"
        string_val: "carmen"
        string_val: "monson"
        string_val: "minor"
        string_val: "outlying"
        string_val: "milladore"
        string_val: "dolly"
        string_val: "parton"
        string_val: "heyy"
        string_val: "babyy"
        string_val: "gackt"
        string_val: "camui"
        string_val: "almighty"
        string_val: "johnsons"
        string_val: "bernard"
        string_val: "force"
        string_val: "phalcon"
        string_val: "marble"
        string_val: "cliffs"
        string_val: "hillview"
        string_val: "mineiro"
        string_val: "metalcore"
        string_val: "ek"
        string_val: "boond"
        string_val: "ishq"
        string_val: "occult"
        string_val: "saved"
        string_val: "johnnie"
        string_val: "shorty"
        string_val: "door"
        string_val: "release"
        string_val: "ties"
        string_val: "bind"
        string_val: "touchdown"
        string_val: "wenham"
        string_val: "chisholm"
        string_val: "inca"
        string_val: "weekend"
        string_val: "petit"
        string_val: "manan"
        string_val: "mascoutah"
        string_val: "tanzania"
        string_val: "38"
        string_val: "favoretta"
        string_val: "questions"
        string_val: "answers"
        string_val: "deathcore"
        string_val: "ik"
        string_val: "tara"
        string_val: "nova"
        string_val: "scotia"
        string_val: "speculative"
        string_val: "shangha\303\257"
        string_val: "milligan"
        string_val: "charenton"
        string_val: "umbrellas"
        string_val: "cherbourg"
        string_val: "merle"
        string_val: "haggard"
        string_val: "30th"
        string_val: "mamaroneck"
        string_val: "wwe"
        string_val: "od"
        string_val: "mene"
        string_val: "se"
        string_val: "odvikavaj"
        string_val: "freud"
        string_val: "moralist"
        string_val: "scorching"
        string_val: "sd"
        string_val: "roselle"
        string_val: "kaanapali"
        string_val: "widows"
        string_val: "ever"
        string_val: "farristown"
        string_val: "vol"
        string_val: "rss"
        string_val: "tracking"
        string_val: "brit"
        string_val: "unconscious"
        string_val: "tibetan"
        string_val: "montreal"
        string_val: "char"
        string_val: "colombia"
        string_val: "lands"
        string_val: "midongy"
        string_val: "du"
        string_val: "sud"
        string_val: "deersville"
        string_val: "exploits"
        string_val: "cormorant"
        string_val: "slippery"
        string_val: "noodle"
        string_val: "gober"
        string_val: "osage"
        string_val: "parempi"
        string_val: "mies"
        string_val: "caf\303\251"
        string_val: "daughter"
        string_val: "baeckeoffe"
        string_val: "control"
        string_val: "gem"
        string_val: "dazey"
        string_val: "reverence"
        string_val: "johnny"
        string_val: "kunnon"
        string_val: "syy"
        string_val: "ship"
        string_val: "lollipop"
        string_val: "arch"
        string_val: "edm"
        string_val: "branded"
        string_val: "loveless"
        string_val: "requests"
        string_val: "unarchigal"
        string_val: "marlene"
        string_val: "6th"
        string_val: "winnebago"
        string_val: "charlotte"
        string_val: "grisdale"
        string_val: "bangladesh"
        string_val: "monte"
        string_val: "sereno"
        string_val: "cl\303\241sicos"
        string_val: "robert"
        string_val: "chuckys"
        string_val: "malawi"
        string_val: "sarah"
        string_val: "teen"
        string_val: "carterville"
        string_val: "gryphon"
        string_val: "rewind"
        string_val: "ballachulish"
        string_val: "rebbe"
        string_val: "teachings"
        string_val: "menachem"
        string_val: "schneerson"
        string_val: "influential"
        string_val: "rabbi"
        string_val: "yoakum"
        string_val: "shasha"
        string_val: "43"
        string_val: "eddie"
        string_val: "mathematical"
        string_val: "decisions"
        string_val: "colorless"
        string_val: "tsukuru"
        string_val: "tazaki"
        string_val: "pilgrimage"
        string_val: "olmitz"
        string_val: "wash"
        string_val: "manifesto"
        string_val: "nevermore"
        string_val: "petersville"
        string_val: "bert"
        string_val: "mccracken"
        string_val: "purple"
        string_val: "alan"
        string_val: "abacus"
        string_val: "rochelle"
        string_val: "dick"
        string_val: "sand"
        string_val: "fifteen"
        string_val: "highway"
        string_val: "lincoln"
        string_val: "gettysburg"
        string_val: "hong"
        string_val: "kong"
        string_val: "idledale"
        string_val: "scoop"
        string_val: "swat"
        string_val: "icac"
        string_val: "investigators"
        string_val: "2014"
        string_val: "espen"
        string_val: "lind"
        string_val: "face"
        string_val: "heartland"
        string_val: "wheesung"
        string_val: "callicoon"
        string_val: "doomsters"
        string_val: "firehouse"
        string_val: "bees"
        string_val: "luambe"
        string_val: "thor"
        string_val: "ludowici"
        string_val: "ready"
        string_val: "head"
        string_val: "shout"
        string_val: "gaslight"
        string_val: "reader"
        string_val: "warned"
        string_val: "chant"
        string_val: "leeds"
        string_val: "lidia"
        string_val: "latasha"
        string_val: "journeyman"
        string_val: "pixley"
        string_val: "kitchen"
        string_val: "toto"
        string_val: "ennis"
        string_val: "cie\305\204"
        string_val: "caseya"
        string_val: "somis"
        string_val: "cocos"
        string_val: "kyrgyzstan"
        string_val: "tschaikovsky"
        string_val: "cheapest"
        string_val: "price"
        string_val: "instincts"
        string_val: "dreamstone"
        string_val: "audra"
        string_val: "reviews"
        string_val: "genetics"
        string_val: "swords"
        string_val: "mortem"
        string_val: "wipers"
        string_val: "org\303\241nica"
        string_val: "oil"
        string_val: "endgame"
        string_val: "banker"
        string_val: "strabane"
        string_val: "chen"
        string_val: "jiafeng"
        string_val: "keeling"
        string_val: "fury"
        string_val: "hopes"
        string_val: "heartbreak"
        string_val: "krystal"
        string_val: "bernardsville"
        string_val: "act"
        string_val: "ronnie"
        string_val: "dio"
        string_val: "selection"
        string_val: "hulmeville"
        string_val: "tape"
        string_val: "topock"
        string_val: "making"
        string_val: "milwaukee"
        string_val: "yangtze"
        string_val: "vikku"
        string_val: "vinayakram"
        string_val: "comics"
        string_val: "loved"
        string_val: "self"
        string_val: "leopard"
        string_val: "winfield"
        string_val: "porphyry"
        string_val: "sam"
        string_val: "noxubee"
        string_val: "restaurantin"
        string_val: "perrytown"
        string_val: "candice"
        string_val: "jeannie"
        string_val: "nichole"
        string_val: "agent"
        string_val: "concerns"
        string_val: "minority"
        string_val: "report"
        string_val: "kosher"
        string_val: "confusion"
        string_val: "mistborn"
        string_val: "ascension"
        string_val: "woodston"
        string_val: "mountainair"
        string_val: "theodore"
        string_val: "roosevelt"
        string_val: "inaugural"
        string_val: "site"
        string_val: "pero"
        string_val: "dungeons"
        string_val: "dragons"
        string_val: "mystara"
        string_val: "ruel"
        string_val: "woods"
        string_val: "hole"
        string_val: "oklahoma"
        string_val: "miso"
        string_val: "soup"
        string_val: "paula"
        string_val: "abdul"
        string_val: "musica"
        string_val: "espa\303\261ola"
        string_val: "fashion"
        string_val: "oxford"
        string_val: "em4jay"
        string_val: "shoe"
        string_val: "tristan"
        string_val: "betrayal"
        string_val: "whiteside"
        string_val: "elder"
        string_val: "dive"
        string_val: "bomber"
        string_val: "during"
        string_val: "thailand"
        string_val: "ct"
        string_val: "idols"
        string_val: "paranormal"
        string_val: "dimension"
        string_val: "keeneland"
        string_val: "plaine"
        string_val: "anatomy"
        string_val: "melancholy"
        string_val: "kiley"
        string_val: "couples"
        string_val: "heaton"
        string_val: "boating"
        string_val: "epte"
        string_val: "these"
        string_val: "phantom"
        string_val: "sometimes"
        string_val: "passing"
        string_val: "naseer"
        string_val: "shamma"
        string_val: "minnesota"
        string_val: "recent"
        string_val: "fleetwood"
        string_val: "lakeisha"
        string_val: "dancepop"
        string_val: "muffuletta"
        string_val: "testaroli"
        string_val: "cd"
        string_val: "overload"
        string_val: "starship"
        string_val: "litchfield"
        string_val: "extended"
        string_val: "dancefloor"
        string_val: "bajo"
        string_val: "estrellas"
        string_val: "matter"
        string_val: "mystical"
        string_val: "owens"
        string_val: "graduates"
        string_val: "malibu"
        string_val: "shohola"
        string_val: "tenderfoot"
        string_val: "49"
        string_val: "salvador"
        string_val: "truth"
        string_val: "carpathian"
        string_val: "calipuy"
        string_val: "minnie"
        string_val: "riperton"
        string_val: "cabi"
        string_val: "philosophy"
        string_val: "phenomenological"
        string_val: "collision"
        string_val: "system"
        string_val: "bloodhounds"
        string_val: "spirituals"
        string_val: "wakefield"
        string_val: "freckled"
        string_val: "hydration"
        string_val: "he"
        string_val: "fears"
        string_val: "wolf"
        string_val: "somwhere"
        string_val: "sungmin"
        string_val: "fiji"
        string_val: "outta"
        string_val: "miller"
        string_val: "badmeaningood"
        string_val: "volume4"
        string_val: "jaime"
        string_val: "unwind"
        string_val: "kelsey"
        string_val: "shelley"
        string_val: "cascading"
        string_val: "waterfall"
        string_val: "tropic"
        string_val: "scandalous"
        string_val: "lachman"
        string_val: "hungarian"
        string_val: "55"
        string_val: "gareth"
        string_val: "gates"
        string_val: "pollock"
        string_val: "crossing"
        string_val: "muddy"
        string_val: "bok"
        string_val: "preparedness"
        string_val: "zombie"
        string_val: "apocalypse"
        string_val: "puppet"
        string_val: "axis"
        string_val: "been"
        string_val: "cancelled"
        string_val: "crawlspace"
        string_val: "mim"
        string_val: "cawker"
        string_val: "bougatsa"
        string_val: "pelham"
        string_val: "student"
        string_val: "leticia"
        string_val: "twila"
        string_val: "edwards"
        string_val: "secondary"
        string_val: "residence"
        string_val: "mosses"
        string_val: "manse"
        string_val: "lamar"
        string_val: "bell"
        string_val: "curve"
        string_val: "indocumentado"
        string_val: "bridle"
        string_val: "trails"
        string_val: "24"
        string_val: "lauren"
        string_val: "schenker"
        string_val: "ina"
        string_val: "hermann"
        string_val: "baumann"
        string_val: "parent"
        string_val: "hawaiian"
        string_val: "honeymoon"
        string_val: "1999"
        string_val: "novels"
        string_val: "iris"
        string_val: "2032"
        string_val: "warriors"
        string_val: "avatar"
        string_val: "moose"
        string_val: "message"
        string_val: "szahram"
        string_val: "nazeri"
        string_val: "hold"
        string_val: "liquor"
        string_val: "electronow"
        string_val: "kenya"
        string_val: "afterlife"
        string_val: "palm"
        string_val: "tennyson"
        string_val: "wagener"
        string_val: "delanson"
        string_val: "brownfield"
        string_val: "breaux"
        string_val: "turks"
        string_val: "caicos"
        string_val: "hoyt"
        string_val: "niagara"
        string_val: "thrash"
        string_val: "attack"
        string_val: "chymical"
        string_val: "wedding"
        string_val: "carne"
        string_val: "pizzaiola"
        string_val: "tamra"
        string_val: "viola"
        string_val: "dorothea"
        string_val: "slut"
        string_val: "27"
        string_val: "always"
        string_val: "trouble"
        string_val: "ward"
        string_val: "stuck"
        string_val: "sax"
        string_val: "joni"
        string_val: "sanders"
        string_val: "53"
        string_val: "arctic"
        string_val: "flowers"
        string_val: "max"
        string_val: "richter"
        string_val: "61"
        string_val: "exiles"
        string_val: "farallon"
        string_val: "fight"
        string_val: "anarchy"
        string_val: "elba"
        string_val: "corina"
        string_val: "technical"
        string_val: "brutal"
        string_val: "straight"
        string_val: "eckstine"
        string_val: "emotron"
        string_val: "varieties"
        string_val: "scientific"
        string_val: "telemark"
        string_val: "exploring"
        string_val: "reef"
        string_val: "active"
        string_val: "traffic"
        string_val: "policeman"
        string_val: "hattiesburg"
        string_val: "caucasian"
        string_val: "jboss"
        string_val: "enterprise"
        string_val: "soa"
        string_val: "platform"
        string_val: "halfway"
        string_val: "shall"
        string_val: "armenian"
        string_val: "steel"
        string_val: "rag"
        string_val: "covers"
        string_val: "recite"
        string_val: "glennie"
        string_val: "mulawin"
        string_val: "drums"
        string_val: "along"
        string_val: "brenda"
        string_val: "turk"
        string_val: "fourche"
        string_val: "itch"
        string_val: "spectres"
        string_val: "meaning"
        string_val: "slinger"
        string_val: "operetta"
        string_val: "dolores"
        string_val: "coastal"
        string_val: "landscape"
        string_val: "vinci"
        string_val: "code"
        string_val: "vanishing"
        string_val: "thieves"
        string_val: "brubeck"
        string_val: "goldimouse"
        string_val: "intimate"
        string_val: "por"
        string_val: "una"
        string_val: "cabeza"
        string_val: "reading"
        string_val: "invades"
        string_val: "everyday"
        string_val: "beats"
        string_val: "palau"
        string_val: "whether"
        string_val: "bahrain"
        string_val: "uncut"
        string_val: "sadface"
        string_val: "beard"
        string_val: "chelsea"
        string_val: "lunchtime"
        string_val: "vegan"
        string_val: "enfield"
        string_val: "willits"
        string_val: "olpe"
        string_val: "mp"
        string_val: "lighthouse"
        string_val: "jackass"
        string_val: "investing"
        string_val: "maple"
        string_val: "glen"
        string_val: "meatballs"
        string_val: "gibassier"
        string_val: "ricky"
        string_val: "skaggs"
        string_val: "hendley"
        string_val: "catahoula"
        string_val: "entrevistas"
        string_val: "metallica"
        string_val: "never"
        string_val: "stranger"
        string_val: "addo"
        string_val: "elefanten"
        string_val: "coon"
        string_val: "clarice"
        string_val: "debbie"
        string_val: "flame"
        string_val: "wielding"
        string_val: "winnfield"
        string_val: "no\303\253l"
        string_val: "forcast"
        string_val: "private"
        string_val: "patient"
        string_val: "feast"
        string_val: "cornelia"
        string_val: "bettie"
        string_val: "tyrant"
        string_val: "dschiwan"
        string_val: "gasparjan"
        string_val: "beth"
        string_val: "tatico"
        string_val: "henriquez"
        string_val: "bleeps"
        string_val: "bloops"
        string_val: "schlitt"
        string_val: "chris"
        string_val: "frantz"
        string_val: "niobrara"
        string_val: "licence"
        string_val: "renewed"
        string_val: "web"
        string_val: "signed"
        string_val: "xoxo"
        string_val: "divorce"
        string_val: "togo"
        string_val: "24th"
        string_val: "released"
        string_val: "whitney"
        string_val: "deathsmiles"
        string_val: "mile"
        string_val: "shoes"
        string_val: "tha"
        string_val: "funkee"
        string_val: "homosapien"
        string_val: "wenn"
        string_val: "lucy"
        string_val: "springt"
        string_val: "saintly"
        string_val: "switch"
        string_val: "vinyl"
        string_val: "notebooks"
        string_val: "winterheart"
        string_val: "guild"
        string_val: "corinne"
        string_val: "tisha"
        string_val: "billion"
        string_val: "dollar"
        string_val: "ransom"
        string_val: "paulette"
        string_val: "piece"
        string_val: "orchestra"
        string_val: "cello"
        string_val: "colors"
        string_val: "taskcracker"
        string_val: "outlook"
        string_val: "sport"
        string_val: "pastime"
        string_val: "solid"
        string_val: "gina"
        string_val: "schock"
        string_val: "twerkout"
        string_val: "neutral"
        string_val: "xiang"
        string_val: "madden"
        string_val: "nfl"
        string_val: "nana"
        string_val: "kitade"
        string_val: "psychedelia"
        string_val: "angelita"
        string_val: "susan"
        string_val: "reed"
        string_val: "ashlee"
        string_val: "watson"
        string_val: "currituck"
        string_val: "adelaide"
        string_val: "gateau"
        string_val: "everywhere"
        string_val: "magnificent"
        string_val: "thomas"
        string_val: "hynes"
        string_val: "recovery"
        string_val: "dame"
        string_val: "anatone"
        string_val: "incorporate"
        string_val: "ayumi"
        string_val: "hamasaki"
        string_val: "arena"
        string_val: "level"
        string_val: "libre"
        string_val: "ucolo"
        string_val: "headed"
        string_val: "vineyard"
        string_val: "haven"
        string_val: "candace"
        string_val: "mcgee"
        string_val: "bodyguard"
        string_val: "montchanin"
        string_val: "fuzzy"
        string_val: "charlie"
        string_val: "rumba"
        string_val: "verde"
        string_val: "lopeno"
        string_val: "dorchester"
        string_val: "filthy"
        string_val: "lucre"
        string_val: "fabri"
        string_val: "fibra"
        string_val: "princes"
        string_val: "treasure"
        string_val: "dyke"
        string_val: "terminator"
        string_val: "furano"
        string_val: "ashibetsu"
        string_val: "ate"
        string_val: "rocky"
        string_val: "mound"
        string_val: "sweden"
        string_val: "pause"
        string_val: "fr\303\255o"
        string_val: "somewhee"
        string_val: "hollenberg"
        string_val: "ruth"
        string_val: "seeger"
        string_val: "007"
        string_val: "cleopatra"
        string_val: "stratan"
        string_val: "masterworks"
        string_val: "teenagers"
        string_val: "merlin"
        string_val: "effect"
        string_val: "pinto"
        string_val: "soon"
        string_val: "grey"
        string_val: "alone"
        string_val: "faint"
        string_val: "benedict"
        string_val: "slick"
        string_val: "rick"
        string_val: "furnace"
        string_val: "adrenaline"
        string_val: "mabel"
        string_val: "dramatic"
        string_val: "career"
        string_val: "tony"
        string_val: "kakko"
        string_val: "exmore"
        string_val: "tom"
        string_val: "baxter"
        string_val: "kelso"
        string_val: "camden"
        string_val: "warning"
        string_val: "enough"
        string_val: "darth"
        string_val: "maul"
        string_val: "ruud"
        string_val: "jolie"
        string_val: "zamiast"
        string_val: "burzy"
        string_val: "belles"
        string_val: "clements"
        string_val: "nancy"
        string_val: "ruiz"
        string_val: "gibraltar"
        string_val: "class"
        string_val: "tarkan"
        string_val: "madrugando"
        string_val: "thornbury"
        string_val: "nm"
        string_val: "cave"
        string_val: "canem"
        string_val: "demos"
        string_val: "agnolotti"
        string_val: "effortless"
        string_val: "regurgitation"
        string_val: "va"
        string_val: "villa"
        string_val: "goodreader"
        string_val: "maltio"
        string_val: "strict"
        string_val: "mc"
        string_val: "roots"
        string_val: "australia"
        string_val: "compendium"
        string_val: "analytical"
        string_val: "nomenclature"
        string_val: "shavuot"
        string_val: "holidays"
        string_val: "yarra"
        string_val: "harrowing"
        string_val: "gwynedd"
        string_val: "cuckoo"
        string_val: "clocks"
        string_val: "hymn"
        string_val: "munawar"
        string_val: "ali"
        string_val: "khan"
        string_val: "mujeres"
        string_val: "hombres"
        string_val: "bum"
        string_val: "note"
        string_val: "bead"
        string_val: "sweat"
        string_val: "episodes"
        string_val: "musketeers"
        string_val: "131"
        string_val: "atanassow"
        string_val: "voyage"
        string_val: "treader"
        string_val: "moffett"
        string_val: "brat"
        string_val: "nationaal"
        string_val: "garphyttan"
        string_val: "cherryh"
        string_val: "odyssey"
        string_val: "valle"
        string_val: "jarama"
        string_val: "bottles"
        string_val: "un"
        string_val: "provinciale"
        string_val: "testament"
        string_val: "orpheus"
        string_val: "alexandra"
        string_val: "govere"
        string_val: "anochecer"
        string_val: "urbano"
        string_val: "eastport"
        string_val: "thomson"
        string_val: "dillard"
        string_val: "putnam"
        string_val: "hall"
        string_val: "bastards"
        string_val: "guatemala"
        string_val: "skylar"
        string_val: "diggins"
        string_val: "riding"
        string_val: "using"
        string_val: "object"
        string_val: "unalaska"
        string_val: "closed"
        string_val: "appreciation"
        string_val: "folksy"
        string_val: "panic"
        string_val: "streets"
        string_val: "infinite"
        string_val: "pasqual"
        string_val: "battlefield"
        string_val: "burnside"
        string_val: "noew"
        string_val: "dundee"
        string_val: "evocation"
        string_val: "arcane"
        string_val: "dominion"
        string_val: "heroic"
        string_val: "failures"
        string_val: "candy"
        string_val: "mango"
        string_val: "pine"
        string_val: "bluffs"
        string_val: "prodigal"
        string_val: "baba"
        string_val: "palying"
        string_val: "maunabo"
        string_val: "15th"
        string_val: "olympia"
        string_val: "1959"
        string_val: "delta"
        string_val: "chicago"
        string_val: "schenectady"
        string_val: "fleischmanns"
        string_val: "breathless"
        string_val: "gasport"
        string_val: "wolin"
        string_val: "lion"
        string_val: "airport"
        string_val: "galsoft"
        string_val: "linux"
        string_val: "igor"
        string_val: "talkow"
        string_val: "grits"
        string_val: "rocks"
        string_val: "sheikh"
        string_val: "chilli"
        string_val: "lobster"
        string_val: "newberg"
        string_val: "scarecrow"
        string_val: "masterful"
        string_val: "owes"
        string_val: "wizard"
        string_val: "ashley"
        string_val: "cafagna"
        string_val: "tesoro"
        string_val: "jip"
        string_val: "rachael"
        string_val: "grantsburg"
        string_val: "spencer"
        string_val: "fatty"
        string_val: "haskell"
        string_val: "bim"
        string_val: "ear"
        string_val: "paulinho"
        string_val: "nearly"
        string_val: "nashville"
        string_val: "june"
        string_val: "rileyville"
        string_val: "angle"
        string_val: "rosalie"
        string_val: "evelyn"
        string_val: "croatan"
        string_val: "esquivando"
        string_val: "charcos"
        string_val: "documents"
        string_val: "swift"
        string_val: "doves"
        string_val: "pythons"
        string_val: "tourist"
        string_val: "tin"
        string_val: "domingo"
        string_val: "karl"
        string_val: "davydov"
        string_val: "reyna"
        string_val: "trottole"
        string_val: "sell"
        string_val: "setting"
        string_val: "bears"
        string_val: "granddaughter"
        string_val: "ambler"
        string_val: "andreas"
        string_val: "becomes"
        string_val: "tabor"
        string_val: "ron"
        string_val: "grainer"
        string_val: "magica"
        string_val: "apostolos"
        string_val: "nikolaidis"
        string_val: "nba"
        string_val: "ahmad"
        string_val: "rashad"
        string_val: "didn"
        string_val: "nobody"
        string_val: "they"
        string_val: "else"
        string_val: "spy"
        string_val: "fanatic"
        string_val: "dutch"
        string_val: "used"
        string_val: "her"
        string_val: "collective"
        string_val: "pitcairn"
        string_val: "kom"
        string_val: "sparro"
        string_val: "corner"
        string_val: "manos"
        string_val: "hatzidakis"
        string_val: "therapy"
        string_val: "canyon"
        string_val: "gleed"
        string_val: "teriazume"
        string_val: "ethiopia"
        string_val: "ellenton"
        string_val: "apples"
        string_val: "estr\303\251s"
        string_val: "iparty"
        string_val: "victorious"
        string_val: "tourte"
        string_val: "yamhill"
        string_val: "adobe"
        string_val: "digital"
        string_val: "editions"
        string_val: "pastelaria"
        string_val: "takilma"
        string_val: "alexander"
        string_val: "heath"
        string_val: "maiden"
        string_val: "danced"
        string_val: "zahn"
        string_val: "leisure"
        string_val: "knoll"
        string_val: "southside"
        string_val: "1000"
        string_val: "rathinirvedam"
        string_val: "statistical"
        string_val: "getting"
        string_val: "leonard"
        string_val: "deviled"
        string_val: "crab"
        string_val: "dimitri"
        string_val: "fampas"
        string_val: "douthat"
        string_val: "bestiary"
        string_val: "council"
        string_val: "dads"
        string_val: "blackpool"
        string_val: "zec"
        string_val: "mitchinamecus"
…
            }
          }
        }
      }
      attr {
        key: "skip_empty"
        value {
          b: true
        }
      }
    }
    node_def {
      name: "SparseToDense_2/default_value"
      op: "Const"
      device: "/replica:0/task:0/device:CPU:0"
      attr {
        key: "_output_shapes"
        value {
          list {
            shape {
            }
          }
        }
      }
      attr {
        key: "dtype"
        value {
          type: DT_STRING
        }
      }
      attr {
        key: "value"
        value {
          tensor {
            dtype: DT_STRING
            tensor_shape {
            }
            string_val: "[PAD]"
          }
        }
      }
    }
    node_def {
      name: "SparseToDense_2"
      op: "SparseToDense"
      input: "StringSplit/StringSplit:indices:0"
      input: "StringSplit/StringSplit:shape:0"
      input: "StringSplit/StringSplit:values:0"
      input: "SparseToDense_2/default_value:output:0"
      device: "/replica:0/task:0/device:CPU:0"
      attr {
        key: "T"
        value {
          type: DT_STRING
        }
      }
      attr {
        key: "Tindices"
        value {
          type: DT_INT64
        }
      }
      attr {
        key: "_output_shapes"
        value {
          list {
            shape {
              dim {
                size: -1
              }
              dim {
                size: -1
              }
            }
          }
        }
      }
      attr {
        key: "validate_indices"
        value {
          b: true
        }
      }
    }
    node_def {
      name: "strided_slice_1/stack"
      op: "Const"
      device: "/replica:0/task:0/device:CPU:0"
      attr {
        key: "_output_shapes"
        value {
          list {
            shape {
              dim {
                size: 2
              }
            }
          }
        }
      }
      attr {
        key: "dtype"
        value {
          type: DT_INT32
        }
      }
      attr {
        key: "value"
        value {
          tensor {
            dtype: DT_INT32
            tensor_shape {
              dim {
                size: 2
              }
            }
            tensor_content: "\000\000\000\000\000\000\000\000"
          }
        }
      }
    }
    node_def {
      name: "strided_slice_1/stack_1"
      op: "Const"
      device: "/replica:0/task:0/device:CPU:0"
      attr {
        key: "_output_shapes"
        value {
          list {
            shape {
              dim {
                size: 2
              }
            }
          }
        }
      }
      attr {
        key: "dtype"
        value {
          type: DT_INT32
        }
      }
      attr {
        key: "value"
        value {
          tensor {
            dtype: DT_INT32
            tensor_shape {
              dim {
                size: 2
              }
            }
            tensor_content: "\000\000\000\000\020\000\000\000"
          }
        }
      }
    }
    node_def {
      name: "strided_slice_1/stack_2"
      op: "Const"
      device: "/replica:0/task:0/device:CPU:0"
      attr {
        key: "_output_shapes"
        value {
          list {
            shape {
              dim {
                size: 2
              }
            }
          }
        }
      }
      attr {
        key: "dtype"
        value {
          type: DT_INT32
        }
      }
      attr {
        key: "value"
        value {
          tensor {
            dtype: DT_INT32
            tensor_shape {
              dim {
                size: 2
              }
            }
            tensor_content: "\001\000\000\000\001\000\000\000"
          }
        }
      }
    }
    node_def {
      name: "strided_slice_1"
      op: "StridedSlice"
      input: "SparseToDense_2:dense:0"
      input: "strided_slice_1/stack:output:0"
      input: "strided_slice_1/stack_1:output:0"
      input: "strided_slice_1/stack_2:output:0"
      device: "/replica:0/task:0/device:CPU:0"
      attr {
        key: "Index"
        value {
          type: DT_INT32
        }
      }
      attr {
        key: "T"
        value {
          type: DT_STRING
        }
      }
      attr {
        key: "_output_shapes"
        value {
          list {
            shape {
              dim {
                size: -1
              }
              dim {
                size: -1
              }
            }
          }
        }
      }
      attr {
        key: "begin_mask"
        value {
          i: 3
        }
      }
      attr {
        key: "ellipsis_mask"
        value {
          i: 0
        }
      }
      attr {
        key: "end_mask"
        value {
          i: 1
        }
      }
      attr {
        key: "new_axis_mask"
        value {
          i: 0
        }
      }
      attr {
        key: "shrink_axis_mask"
        value {
          i: 0
        }
      }
    }
    node_def {
      name: "Shape_1"
      op: "Shape"
      input: "strided_slice_1:output:0"
      device: "/replica:0/task:0/device:CPU:0"
      attr {
        key: "T"
        value {
          type: DT_STRING
        }
      }
      attr {
        key: "_output_shapes"
        value {
          list {
            shape {
              dim {
                size: 2
              }
            }
          }
        }
      }
      attr {
        key: "out_type"
        value {
          type: DT_INT32
        }
      }
    }
    node_def {
      name: "strided_slice_2/stack"
      op: "Const"
      device: "/replica:0/task:0/device:CPU:0"
      attr {
        key: "_output_shapes"
        value {
          list {
            shape {
              dim {
                size: 1
              }
            }
          }
        }
      }
      attr {
        key: "dtype"
        value {
          type: DT_INT32
        }
      }
      attr {
        key: "value"
        value {
          tensor {
            dtype: DT_INT32
            tensor_shape {
              dim {
                size: 1
              }
            }
            int_val: 1
          }
        }
      }
    }
    node_def {
      name: "strided_slice_2/stack_1"
      op: "Const"
      device: "/replica:0/task:0/device:CPU:0"
      attr {
        key: "_output_shapes"
        value {
          list {
            shape {
              dim {
                size: 1
              }
            }
          }
        }
      }
      attr {
        key: "dtype"
        value {
          type: DT_INT32
        }
      }
      attr {
        key: "value"
        value {
          tensor {
            dtype: DT_INT32
            tensor_shape {
              dim {
                size: 1
              }
            }
            int_val: 2
          }
        }
      }
    }
    node_def {
      name: "strided_slice_2/stack_2"
      op: "Const"
      device: "/replica:0/task:0/device:CPU:0"
      attr {
        key: "_output_shapes"
        value {
          list {
            shape {
              dim {
                size: 1
              }
            }
          }
        }
      }
      attr {
        key: "dtype"
        value {
          type: DT_INT32
        }
      }
      attr {
        key: "value"
        value {
          tensor {
            dtype: DT_INT32
            tensor_shape {
              dim {
                size: 1
              }
            }
            int_val: 1
          }
        }
      }
    }
    node_def {
      name: "strided_slice_2"
      op: "StridedSlice"
      input: "Shape_1:output:0"
      input: "strided_slice_2/stack:output:0"
      input: "strided_slice_2/stack_1:output:0"
      input: "strided_slice_2/stack_2:output:0"
      device: "/replica:0/task:0/device:CPU:0"
      attr {
        key: "Index"
        value {
          type: DT_INT32
        }
      }
      attr {
        key: "T"
        value {
          type: DT_INT32
        }
      }
      attr {
        key: "_output_shapes"
        value {
          list {
            shape {
            }
          }
        }
      }
      attr {
        key: "begin_mask"
        value {
          i: 0
        }
      }
      attr {
        key: "ellipsis_mask"
        value {
          i: 0
        }
      }
      attr {
        key: "end_mask"
        value {
          i: 0
        }
      }
      attr {
        key: "new_axis_mask"
        value {
          i: 0
        }
      }
      attr {
        key: "shrink_axis_mask"
        value {
          i: 1
        }
      }
    }
    node_def {
      name: "GreaterEqual/y"
      op: "Const"
      device: "/replica:0/task:0/device:CPU:0"
      attr {
        key: "_output_shapes"
        value {
          list {
            shape {
            }
          }
        }
      }
      attr {
        key: "dtype"
        value {
          type: DT_INT32
        }
      }
      attr {
        key: "value"
        value {
          tensor {
            dtype: DT_INT32
            tensor_shape {
            }
            int_val: 3
          }
        }
      }
    }
    node_def {
      name: "GreaterEqual"
      op: "GreaterEqual"
      input: "strided_slice_2:output:0"
      input: "GreaterEqual/y:output:0"
      device: "/replica:0/task:0/device:CPU:0"
      attr {
        key: "T"
        value {
          type: DT_INT32
        }
      }
      attr {
        key: "_output_shapes"
        value {
          list {
            shape {
            }
          }
        }
      }
    }
    node_def {
      name: "cond"
      op: "StatelessIf"
      input: "GreaterEqual:z:0"
      input: "strided_slice_1:output:0"
      device: "/replica:0/task:0/device:CPU:0"
      attr {
        key: "Tcond"
        value {
          type: DT_BOOL
        }
      }
      attr {
        key: "Tin"
        value {
          list {
            type: DT_STRING
          }
        }
      }
      attr {
        key: "Tout"
        value {
          list {
            type: DT_STRING
          }
        }
      }
      attr {
        key: "_lower_using_switch_merge"
        value {
          b: true
        }
      }
      attr {
        key: "_output_shapes"
        value {
          list {
            shape {
              dim {
                size: -1
              }
              dim {
                size: -1
              }
            }
          }
        }
      }
      attr {
        key: "else_branch"
        value {
          func {
            name: "cond_false_71"
          }
        }
      }
      attr {
        key: "output_shapes"
        value {
          list {
            shape {
              dim {
                size: -1
              }
              dim {
                size: -1
              }
            }
          }
        }
      }
      attr {
        key: "then_branch"
        value {
          func {
            name: "cond_true_70"
          }
        }
      }
    }
    node_def {
      name: "cond/Identity"
      op: "Identity"
      input: "cond:output:0"
      device: "/replica:0/task:0/device:CPU:0"
      attr {
        key: "T"
        value {
          type: DT_STRING
        }
      }
      attr {
        key: "_output_shapes"
        value {
          list {
            shape {
              dim {
                size: -1
              }
              dim {
                size: -1
              }
            }
          }
        }
      }
    }
    node_def {
      name: "hash_table_Lookup/LookupTableFindV2"
      op: "LookupTableFindV2"
      input: "hash_table_lookup_lookuptablefindv2_hash_table"
      input: "cond/Identity:output:0"
      input: "hash_table_lookup_lookuptablefindv2_const_2"
      device: "/replica:0/task:0/device:CPU:0"
      attr {
        key: "Tin"
        value {
          type: DT_STRING
        }
      }
      attr {
        key: "Tout"
        value {
          type: DT_INT32
        }
      }
      attr {
        key: "_output_shapes"
        value {
          list {
            shape {
              dim {
                size: -1
              }
              dim {
                size: -1
              }
            }
          }
        }
      }
    }
    node_def {
      name: "SparseToDense_3/default_value"
      op: "Const"
      device: "/replica:0/task:0/device:CPU:0"
      attr {
        key: "_output_shapes"
        value {
          list {
            shape {
            }
          }
        }
      }
      attr {
        key: "dtype"
        value {
          type: DT_FLOAT
        }
      }
      attr {
        key: "value"
        value {
          tensor {
            dtype: DT_FLOAT
            tensor_shape {
            }
            float_val: 0.0
          }
        }
      }
    }
    node_def {
      name: "SparseToDense_3"
      op: "SparseToDense"
      input: "ParseSingleExample/ParseSingleExample:sparse_indices:2"
      input: "ParseSingleExample/ParseSingleExample:sparse_shapes:2"
      input: "ParseSingleExample/ParseSingleExample:sparse_values:2"
      input: "SparseToDense_3/default_value:output:0"
      device: "/replica:0/task:0/device:CPU:0"
      attr {
        key: "T"
        value {
          type: DT_FLOAT
        }
      }
      attr {
        key: "Tindices"
        value {
          type: DT_INT64
        }
      }
      attr {
        key: "_output_shapes"
        value {
          list {
            shape {
              dim {
                size: -1
              }
            }
          }
        }
      }
      attr {
        key: "validate_indices"
        value {
          b: true
        }
      }
    }
    node_def {
      name: "Size"
      op: "Size"
      input: "SparseToDense:dense:0"
      device: "/replica:0/task:0/device:CPU:0"
      attr {
        key: "T"
        value {
          type: DT_FLOAT
        }
      }
      attr {
        key: "_output_shapes"
        value {
          list {
            shape {
            }
          }
        }
      }
      attr {
        key: "out_type"
        value {
          type: DT_INT32
        }
      }
    }
    node_def {
      name: "Reshape/shape/1"
      op: "Const"
      device: "/replica:0/task:0/device:CPU:0"
      attr {
        key: "_output_shapes"
        value {
          list {
            shape {
            }
          }
        }
      }
      attr {
        key: "dtype"
        value {
          type: DT_INT32
        }
      }
      attr {
        key: "value"
        value {
          tensor {
            dtype: DT_INT32
            tensor_shape {
            }
            int_val: -1
          }
        }
      }
    }
    node_def {
      name: "Reshape/shape"
      op: "Pack"
      input: "Size:output:0"
      input: "Reshape/shape/1:output:0"
      device: "/replica:0/task:0/device:CPU:0"
      attr {
        key: "N"
        value {
          i: 2
        }
      }
      attr {
        key: "T"
        value {
          type: DT_INT32
        }
      }
      attr {
        key: "_output_shapes"
        value {
          list {
            shape {
              dim {
                size: 2
              }
            }
          }
        }
      }
      attr {
        key: "axis"
        value {
          i: 0
        }
      }
    }
    node_def {
      name: "Reshape"
      op: "Reshape"
      input: "SparseToDense_3:dense:0"
      input: "Reshape/shape:output:0"
      device: "/replica:0/task:0/device:CPU:0"
      attr {
        key: "T"
        value {
          type: DT_FLOAT
        }
      }
      attr {
        key: "Tshape"
        value {
          type: DT_INT32
        }
      }
      attr {
        key: "_output_shapes"
        value {
          list {
            shape {
              dim {
                size: -1
              }
              dim {
                size: -1
              }
            }
          }
        }
      }
    }
    node_def {
      name: "Const"
      op: "Const"
      device: "/replica:0/task:0/device:CPU:0"
      attr {
        key: "_output_shapes"
        value {
          list {
            shape {
            }
          }
        }
      }
      attr {
        key: "dtype"
        value {
          type: DT_FLOAT
        }
      }
      attr {
        key: "value"
        value {
          tensor {
            dtype: DT_FLOAT
            tensor_shape {
            }
            float_val: 1.0
          }
        }
      }
    }
    node_def {
      name: "Const_1"
      op: "Const"
      device: "/replica:0/task:0/device:CPU:0"
      attr {
        key: "_output_shapes"
        value {
          list {
            shape {
            }
          }
        }
      }
      attr {
        key: "dtype"
        value {
          type: DT_INT64
        }
      }
      attr {
        key: "value"
        value {
          tensor {
            dtype: DT_INT64
            tensor_shape {
            }
            int64_val: -1
          }
        }
      }
    }
    node_def {
      name: "Identity"
      op: "Identity"
      input: "hash_table_Lookup/LookupTableFindV2:values:0"
      input: "^hash_table_Lookup/LookupTableFindV2"
      device: "/replica:0/task:0/device:CPU:0"
      attr {
        key: "T"
        value {
          type: DT_INT32
        }
      }
      attr {
        key: "_output_shapes"
        value {
          list {
            shape {
              dim {
                size: -1
              }
              dim {
                size: -1
              }
            }
          }
        }
      }
    }
    node_def {
      name: "Identity_1"
      op: "Identity"
      input: "Size:output:0"
      input: "^hash_table_Lookup/LookupTableFindV2"
      device: "/replica:0/task:0/device:CPU:0"
      attr {
        key: "T"
        value {
          type: DT_INT32
        }
      }
      attr {
        key: "_output_shapes"
        value {
          list {
            shape {
            }
          }
        }
      }
    }
    node_def {
      name: "Identity_2"
      op: "Identity"
      input: "SparseToDense:dense:0"
      input: "^hash_table_Lookup/LookupTableFindV2"
      device: "/replica:0/task:0/device:CPU:0"
      attr {
        key: "T"
        value {
          type: DT_FLOAT
        }
      }
      attr {
        key: "_output_shapes"
        value {
          list {
            shape {
              dim {
                size: -1
              }
            }
          }
        }
      }
    }
    node_def {
      name: "Identity_3"
      op: "Identity"
      input: "Const_1:output:0"
      input: "^hash_table_Lookup/LookupTableFindV2"
      device: "/replica:0/task:0/device:CPU:0"
      attr {
        key: "T"
        value {
          type: DT_INT64
        }
      }
      attr {
        key: "_output_shapes"
        value {
          list {
            shape {
            }
          }
        }
      }
    }
    node_def {
      name: "Identity_4"
      op: "Identity"
      input: "Const:output:0"
      input: "^hash_table_Lookup/LookupTableFindV2"
      device: "/replica:0/task:0/device:CPU:0"
      attr {
        key: "T"
        value {
          type: DT_FLOAT
        }
      }
      attr {
        key: "_output_shapes"
        value {
          list {
            shape {
            }
          }
        }
      }
    }
    node_def {
      name: "Identity_5"
      op: "Identity"
      input: "Reshape:output:0"
      input: "^hash_table_Lookup/LookupTableFindV2"
      device: "/replica:0/task:0/device:CPU:0"
      attr {
        key: "T"
        value {
          type: DT_FLOAT
        }
      }
      attr {
        key: "_output_shapes"
        value {
          list {
            shape {
              dim {
                size: -1
              }
              dim {
                size: -1
              }
            }
          }
        }
      }
    }
    node_def {
      name: "Identity_6"
      op: "Identity"
      input: "SparseToDense:dense:0"
      input: "^hash_table_Lookup/LookupTableFindV2"
      device: "/replica:0/task:0/device:CPU:0"
      attr {
        key: "T"
        value {
          type: DT_FLOAT
        }
      }
      attr {
        key: "_output_shapes"
        value {
          list {
            shape {
              dim {
                size: -1
              }
            }
          }
        }
      }
    }
    ret {
      key: "identity"
      value: "Identity:output:0"
    }
    ret {
      key: "identity_1"
      value: "Identity_1:output:0"
    }
    ret {
      key: "identity_2"
      value: "Identity_2:output:0"
    }
    ret {
      key: "identity_3"
      value: "Identity_3:output:0"
    }
    ret {
      key: "identity_4"
      value: "Identity_4:output:0"
    }
    ret {
      key: "identity_5"
      value: "Identity_5:output:0"
    }
    ret {
      key: "identity_6"
      value: "Identity_6:output:0"
    }
    attr {
      key: "_input_shapes"
      value {
        list {
          shape {
          }
          shape {
            unknown_rank: true
          }
          shape {
          }
        }
      }
    }
    control_ret {
      key: "hash_table_Lookup/LookupTableFindV2"
      value: "hash_table_Lookup/LookupTableFindV2"
    }
    arg_attr {
      value {
        attr {
          key: "_user_specified_name"
          value {
            s: "args_0"
          }
        }
      }
    }
    arg_attr {
      key: 1
      value {
      }
    }
    arg_attr {
      key: 2
      value {
      }
    }
  }
  function {
    signature {
      name: "cond_true_70"
      input_arg {
        name: "identity_strided_slice_1"
        type: DT_STRING
      }
      output_arg {
        name: "identity"
        type: DT_STRING
      }
    }
    node_def {
      name: "Identity"
      op: "Identity"
      input: "identity_strided_slice_1"
      device: "/replica:0/task:0/device:CPU:0"
      attr {
        key: "T"
        value {
          type: DT_STRING
        }
      }
      attr {
        key: "_output_shapes"
        value {
          list {
            shape {
              dim {
                size: -1
              }
              dim {
                size: -1
              }
            }
          }
        }
      }
    }
    ret {
      key: "identity"
      value: "Identity:output:0"
    }
    attr {
      key: "_input_shapes"
      value {
        list {
          shape {
            dim {
              size: -1
            }
            dim {
              size: -1
            }
          }
        }
      }
    }
    arg_attr {
      value {
      }
    }
  }
  function {
    signature {
      name: "__inference__finalize_func_196"
      input_arg {
        name: "unused_string_handle"
        type: DT_STRING
      }
      output_arg {
        name: "identity"
        type: DT_INT64
      }
    }
    node_def {
      name: "Const"
      op: "Const"
      device: "/replica:0/task:0/device:CPU:0"
      attr {
        key: "_output_shapes"
        value {
          list {
            shape {
            }
          }
        }
      }
      attr {
        key: "dtype"
        value {
          type: DT_INT64
        }
      }
      attr {
        key: "value"
        value {
          tensor {
            dtype: DT_INT64
            tensor_shape {
            }
            int64_val: 0
          }
        }
      }
    }
    node_def {
      name: "Identity"
      op: "Identity"
      input: "Const:output:0"
      device: "/replica:0/task:0/device:CPU:0"
      attr {
        key: "T"
        value {
          type: DT_INT64
        }
      }
      attr {
        key: "_output_shapes"
        value {
          list {
            shape {
            }
          }
        }
      }
    }
    ret {
      key: "identity"
      value: "Identity:output:0"
    }
    attr {
      key: "_input_shapes"
      value {
        list {
          shape {
          }
        }
      }
    }
    arg_attr {
      value {
        attr {
          key: "_user_specified_name"
          value {
            s: "unused_string_handle"
          }
        }
      }
    }
  }
  function {
    signature {
      name: "__inference__remote_init_func_152"
      input_arg {
        name: "remotecall_const_12"
        type: DT_STRING
      }
      input_arg {
        name: "remotecall_multideviceiteratortostringhandle"
        type: DT_STRING
      }
      output_arg {
        name: "identity"
        type: DT_STRING
      }
      is_stateful: true
      control_output: "RemoteCall"
    }
    node_def {
      name: "RemoteCall"
      op: "RemoteCall"
      input: "remotecall_const_12"
      input: "remotecall_multideviceiteratortostringhandle"
      device: "/replica:0/task:0/device:CPU:0"
      attr {
        key: "Tin"
        value {
          list {
            type: DT_STRING
          }
        }
      }
      attr {
        key: "Tout"
        value {
          list {
            type: DT_STRING
          }
        }
      }
      attr {
        key: "_output_shapes"
        value {
          list {
            shape {
              unknown_rank: true
            }
          }
        }
      }
      attr {
        key: "f"
        value {
          func {
            name: "__inference__init_func_146"
          }
        }
      }
    }
    node_def {
      name: "Identity"
      op: "Identity"
      input: "RemoteCall:output:0"
      input: "^RemoteCall"
      device: "/replica:0/task:0/device:CPU:0"
      attr {
        key: "T"
        value {
          type: DT_STRING
        }
      }
      attr {
        key: "_output_shapes"
        value {
          list {
            shape {
              unknown_rank: true
            }
          }
        }
      }
    }
    ret {
      key: "identity"
      value: "Identity:output:0"
    }
    attr {
      key: "_input_shapes"
      value {
        list {
          shape {
          }
          shape {
          }
        }
      }
    }
    control_ret {
      key: "RemoteCall"
      value: "RemoteCall"
    }
    arg_attr {
      value {
      }
    }
    arg_attr {
      key: 1
      value {
      }
    }
  }
  function {
    signature {
      name: "__inference__init_func_146"
      input_arg {
        name: "identity_multideviceiteratortostringhandle"
        type: DT_STRING
      }
      output_arg {
        name: "identity"
        type: DT_STRING
      }
    }
    node_def {
      name: "Identity"
      op: "Identity"
      input: "identity_multideviceiteratortostringhandle"
      device: "/replica:0/task:0/device:CPU:0"
      attr {
        key: "T"
        value {
          type: DT_STRING
        }
      }
      attr {
        key: "_output_shapes"
        value {
          list {
            shape {
            }
          }
        }
      }
    }
    ret {
      key: "identity"
      value: "Identity:output:0"
    }
    attr {
      key: "_input_shapes"
      value {
        list {
          shape {
          }
        }
      }
    }
    arg_attr {
      value {
      }
    }
  }
  function {
    signature {
      name: "__inference__remote_next_func_191"
      input_arg {
        name: "string_handle"
        type: DT_STRING
      }
      input_arg {
        name: "remotecall_const_12"
        type: DT_STRING
      }
      input_arg {
        name: "remotecall_multideviceiteratorinit"
        type: DT_INT64
      }
      output_arg {
        name: "identity"
        type: DT_INT32
      }
      output_arg {
        name: "identity_1"
        type: DT_INT32
      }
      output_arg {
        name: "identity_2"
        type: DT_FLOAT
      }
      output_arg {
        name: "identity_3"
        type: DT_INT64
      }
      output_arg {
        name: "identity_4"
        type: DT_FLOAT
      }
      output_arg {
        name: "identity_5"
        type: DT_FLOAT
      }
      output_arg {
        name: "identity_6"
        type: DT_FLOAT
      }
      is_stateful: true
      control_output: "RemoteCall"
    }
    node_def {
      name: "RemoteCall"
      op: "RemoteCall"
      input: "remotecall_const_12"
      input: "string_handle"
      input: "remotecall_multideviceiteratorinit"
      device: "/replica:0/task:0/device:CPU:0"
      attr {
        key: "Tin"
        value {
          list {
            type: DT_STRING
            type: DT_INT64
          }
        }
      }
      attr {
        key: "Tout"
        value {
          list {
            type: DT_INT32
            type: DT_INT32
            type: DT_FLOAT
            type: DT_INT64
            type: DT_FLOAT
            type: DT_FLOAT
            type: DT_FLOAT
          }
        }
      }
      attr {
        key: "_output_shapes"
        value {
          list {
            shape {
              unknown_rank: true
            }
            shape {
              unknown_rank: true
            }
            shape {
              unknown_rank: true
            }
            shape {
              unknown_rank: true
            }
            shape {
              unknown_rank: true
            }
            shape {
              unknown_rank: true
            }
            shape {
              unknown_rank: true
            }
          }
        }
      }
      attr {
        key: "f"
        value {
          func {
            name: "__inference__next_func_172"
          }
        }
      }
    }
    node_def {
      name: "Identity"
      op: "Identity"
      input: "RemoteCall:output:0"
      input: "^RemoteCall"
      device: "/replica:0/task:0/device:CPU:0"
      attr {
        key: "T"
        value {
          type: DT_INT32
        }
      }
      attr {
        key: "_output_shapes"
        value {
          list {
            shape {
              unknown_rank: true
            }
          }
        }
      }
    }
    node_def {
      name: "Identity_1"
      op: "Identity"
      input: "RemoteCall:output:1"
      input: "^RemoteCall"
      device: "/replica:0/task:0/device:CPU:0"
      attr {
        key: "T"
        value {
          type: DT_INT32
        }
      }
      attr {
        key: "_output_shapes"
        value {
          list {
            shape {
              unknown_rank: true
            }
          }
        }
      }
    }
    node_def {
      name: "Identity_2"
      op: "Identity"
      input: "RemoteCall:output:2"
      input: "^RemoteCall"
      device: "/replica:0/task:0/device:CPU:0"
      attr {
        key: "T"
        value {
          type: DT_FLOAT
        }
      }
      attr {
        key: "_output_shapes"
        value {
          list {
            shape {
              unknown_rank: true
            }
          }
        }
      }
    }
    node_def {
      name: "Identity_3"
      op: "Identity"
      input: "RemoteCall:output:3"
      input: "^RemoteCall"
      device: "/replica:0/task:0/device:CPU:0"
      attr {
        key: "T"
        value {
          type: DT_INT64
        }
      }
      attr {
        key: "_output_shapes"
        value {
          list {
            shape {
              unknown_rank: true
            }
          }
        }
      }
    }
    node_def {
      name: "Identity_4"
      op: "Identity"
      input: "RemoteCall:output:4"
      input: "^RemoteCall"
      device: "/replica:0/task:0/device:CPU:0"
      attr {
        key: "T"
        value {
          type: DT_FLOAT
        }
      }
      attr {
        key: "_output_shapes"
        value {
          list {
            shape {
              unknown_rank: true
            }
          }
        }
      }
    }
    node_def {
      name: "Identity_5"
      op: "Identity"
      input: "RemoteCall:output:5"
      input: "^RemoteCall"
      device: "/replica:0/task:0/device:CPU:0"
      attr {
        key: "T"
        value {
          type: DT_FLOAT
        }
      }
      attr {
        key: "_output_shapes"
        value {
          list {
            shape {
              unknown_rank: true
            }
          }
        }
      }
    }
    node_def {
      name: "Identity_6"
      op: "Identity"
      input: "RemoteCall:output:6"
      input: "^RemoteCall"
      device: "/replica:0/task:0/device:CPU:0"
      attr {
        key: "T"
        value {
          type: DT_FLOAT
        }
      }
      attr {
        key: "_output_shapes"
        value {
          list {
            shape {
              unknown_rank: true
            }
          }
        }
      }
    }
    ret {
      key: "identity"
      value: "Identity:output:0"
    }
    ret {
      key: "identity_1"
      value: "Identity_1:output:0"
    }
    ret {
      key: "identity_2"
      value: "Identity_2:output:0"
    }
    ret {
      key: "identity_3"
      value: "Identity_3:output:0"
    }
    ret {
      key: "identity_4"
      value: "Identity_4:output:0"
    }
    ret {
      key: "identity_5"
      value: "Identity_5:output:0"
    }
    ret {
      key: "identity_6"
      value: "Identity_6:output:0"
    }
    attr {
      key: "_input_shapes"
      value {
        list {
          shape {
          }
          shape {
          }
          shape {
          }
        }
      }
    }
    attr {
      key: "experimental_ints_on_device"
      value {
        b: true
      }
    }
    control_ret {
      key: "RemoteCall"
      value: "RemoteCall"
    }
    arg_attr {
      value {
        attr {
          key: "_user_specified_name"
          value {
            s: "string_handle"
          }
        }
      }
    }
    arg_attr {
      key: 1
      value {
      }
    }
    arg_attr {
      key: 2
      value {
      }
    }
  }
  function {
    signature {
      name: "__inference__next_func_172"
      input_arg {
        name: "string_handle"
        type: DT_STRING
      }
      input_arg {
        name: "multideviceiteratorgetnextfromshard_multideviceiteratorinit"
        type: DT_INT64
      }
      output_arg {
        name: "identity"
        type: DT_INT32
      }
      output_arg {
        name: "identity_1"
        type: DT_INT32
      }
      output_arg {
        name: "identity_2"
        type: DT_FLOAT
      }
      output_arg {
        name: "identity_3"
        type: DT_INT64
      }
      output_arg {
        name: "identity_4"
        type: DT_FLOAT
      }
      output_arg {
        name: "identity_5"
        type: DT_FLOAT
      }
      output_arg {
        name: "identity_6"
        type: DT_FLOAT
      }
      is_stateful: true
      control_output: "MultiDeviceIteratorFromStringHandle"
      control_output: "MultiDeviceIteratorGetNextFromShard"
    }
    node_def {
      name: "MultiDeviceIteratorFromStringHandle"
      op: "MultiDeviceIteratorFromStringHandle"
      input: "string_handle"
      device: "/replica:0/task:0/device:CPU:0"
      attr {
        key: "_output_shapes"
        value {
          list {
            shape {
            }
          }
        }
      }
      attr {
        key: "output_shapes"
        value {
          list {
            shape {
              dim {
                size: -1
              }
              dim {
                size: -1
              }
              dim {
                size: -1
              }
            }
            shape {
              dim {
                size: -1
              }
            }
            shape {
              dim {
                size: -1
              }
              dim {
                size: -1
              }
            }
            shape {
              dim {
                size: -1
              }
            }
            shape {
              dim {
                size: -1
              }
            }
            shape {
              dim {
                size: -1
              }
              dim {
                size: -1
              }
              dim {
                size: -1
              }
            }
            shape {
              dim {
                size: -1
              }
              dim {
                size: -1
              }
            }
          }
        }
      }
      attr {
        key: "output_types"
        value {
          list {
            type: DT_INT32
            type: DT_INT32
            type: DT_FLOAT
            type: DT_INT64
            type: DT_FLOAT
            type: DT_FLOAT
            type: DT_FLOAT
          }
        }
      }
    }
    node_def {
      name: "MultiDeviceIteratorGetNextFromShard/shard_num"
      op: "Const"
      device: "/replica:0/task:0/device:CPU:0"
      attr {
        key: "_output_shapes"
        value {
          list {
            shape {
            }
          }
        }
      }
      attr {
        key: "dtype"
        value {
          type: DT_INT32
        }
      }
      attr {
        key: "value"
        value {
          tensor {
            dtype: DT_INT32
            tensor_shape {
            }
            int_val: 0
          }
        }
      }
    }
    node_def {
      name: "MultiDeviceIteratorGetNextFromShard"
      op: "MultiDeviceIteratorGetNextFromShard"
      input: "MultiDeviceIteratorFromStringHandle:multi_device_iterator:0"
      input: "MultiDeviceIteratorGetNextFromShard/shard_num:output:0"
      input: "multideviceiteratorgetnextfromshard_multideviceiteratorinit"
      device: "/replica:0/task:0/device:CPU:0"
      attr {
        key: "_output_shapes"
        value {
          list {
            shape {
              dim {
                size: -1
              }
              dim {
                size: -1
              }
              dim {
                size: -1
              }
            }
            shape {
              dim {
                size: -1
              }
            }
            shape {
              dim {
                size: -1
              }
              dim {
                size: -1
              }
            }
            shape {
              dim {
                size: -1
              }
            }
            shape {
              dim {
                size: -1
              }
            }
            shape {
              dim {
                size: -1
              }
              dim {
                size: -1
              }
              dim {
                size: -1
              }
            }
            shape {
              dim {
                size: -1
              }
              dim {
                size: -1
              }
            }
          }
        }
      }
      attr {
        key: "output_shapes"
        value {
          list {
            shape {
              dim {
                size: -1
              }
              dim {
                size: -1
              }
              dim {
                size: -1
              }
            }
            shape {
              dim {
                size: -1
              }
            }
            shape {
              dim {
                size: -1
              }
              dim {
                size: -1
              }
            }
            shape {
              dim {
                size: -1
              }
            }
            shape {
              dim {
                size: -1
              }
            }
            shape {
              dim {
                size: -1
              }
              dim {
                size: -1
              }
              dim {
                size: -1
              }
            }
            shape {
              dim {
                size: -1
              }
              dim {
                size: -1
              }
            }
          }
        }
      }
      attr {
        key: "output_types"
        value {
          list {
            type: DT_INT32
            type: DT_INT32
            type: DT_FLOAT
            type: DT_INT64
            type: DT_FLOAT
            type: DT_FLOAT
            type: DT_FLOAT
          }
        }
      }
    }
    node_def {
      name: "Identity"
      op: "Identity"
      input: "MultiDeviceIteratorGetNextFromShard:components:0"
      input: "^MultiDeviceIteratorFromStringHandle"
      input: "^MultiDeviceIteratorGetNextFromShard"
      device: "/replica:0/task:0/device:CPU:0"
      attr {
        key: "T"
        value {
          type: DT_INT32
        }
      }
      attr {
        key: "_output_shapes"
        value {
          list {
            shape {
              dim {
                size: -1
              }
              dim {
                size: -1
              }
              dim {
                size: -1
              }
            }
          }
        }
      }
    }
    node_def {
      name: "Identity_1"
      op: "Identity"
      input: "MultiDeviceIteratorGetNextFromShard:components:1"
      input: "^MultiDeviceIteratorFromStringHandle"
      input: "^MultiDeviceIteratorGetNextFromShard"
      device: "/replica:0/task:0/device:CPU:0"
      attr {
        key: "T"
        value {
          type: DT_INT32
        }
      }
      attr {
        key: "_output_shapes"
        value {
          list {
            shape {
              dim {
                size: -1
              }
            }
          }
        }
      }
    }
    node_def {
      name: "Identity_2"
      op: "Identity"
      input: "MultiDeviceIteratorGetNextFromShard:components:2"
      input: "^MultiDeviceIteratorFromStringHandle"
      input: "^MultiDeviceIteratorGetNextFromShard"
      device: "/replica:0/task:0/device:CPU:0"
      attr {
        key: "T"
        value {
          type: DT_FLOAT
        }
      }
      attr {
        key: "_output_shapes"
        value {
          list {
            shape {
              dim {
                size: -1
              }
              dim {
                size: -1
              }
            }
          }
        }
      }
    }
    node_def {
      name: "Identity_3"
      op: "Identity"
      input: "MultiDeviceIteratorGetNextFromShard:components:3"
      input: "^MultiDeviceIteratorFromStringHandle"
      input: "^MultiDeviceIteratorGetNextFromShard"
      device: "/replica:0/task:0/device:CPU:0"
      attr {
        key: "T"
        value {
          type: DT_INT64
        }
      }
      attr {
        key: "_output_shapes"
        value {
          list {
            shape {
              dim {
                size: -1
              }
            }
          }
        }
      }
    }
    node_def {
      name: "Identity_4"
      op: "Identity"
      input: "MultiDeviceIteratorGetNextFromShard:components:4"
      input: "^MultiDeviceIteratorFromStringHandle"
      input: "^MultiDeviceIteratorGetNextFromShard"
      device: "/replica:0/task:0/device:CPU:0"
      attr {
        key: "T"
        value {
          type: DT_FLOAT
        }
      }
      attr {
        key: "_output_shapes"
        value {
          list {
            shape {
              dim {
                size: -1
              }
            }
          }
        }
      }
    }
    node_def {
      name: "Identity_5"
      op: "Identity"
      input: "MultiDeviceIteratorGetNextFromShard:components:5"
      input: "^MultiDeviceIteratorFromStringHandle"
      input: "^MultiDeviceIteratorGetNextFromShard"
      device: "/replica:0/task:0/device:CPU:0"
      attr {
        key: "T"
        value {
          type: DT_FLOAT
        }
      }
      attr {
        key: "_output_shapes"
        value {
          list {
            shape {
              dim {
                size: -1
              }
              dim {
                size: -1
              }
              dim {
                size: -1
              }
            }
          }
        }
      }
    }
    node_def {
      name: "Identity_6"
      op: "Identity"
      input: "MultiDeviceIteratorGetNextFromShard:components:6"
      input: "^MultiDeviceIteratorFromStringHandle"
      input: "^MultiDeviceIteratorGetNextFromShard"
      device: "/replica:0/task:0/device:CPU:0"
      attr {
        key: "T"
        value {
          type: DT_FLOAT
        }
      }
      attr {
        key: "_output_shapes"
        value {
          list {
            shape {
              dim {
                size: -1
              }
              dim {
                size: -1
              }
            }
          }
        }
      }
    }
    ret {
      key: "identity"
      value: "Identity:output:0"
    }
    ret {
      key: "identity_1"
      value: "Identity_1:output:0"
    }
    ret {
      key: "identity_2"
      value: "Identity_2:output:0"
    }
    ret {
      key: "identity_3"
      value: "Identity_3:output:0"
    }
    ret {
      key: "identity_4"
      value: "Identity_4:output:0"
    }
    ret {
      key: "identity_5"
      value: "Identity_5:output:0"
    }
    ret {
      key: "identity_6"
      value: "Identity_6:output:0"
    }
    attr {
      key: "_input_shapes"
      value {
        list {
          shape {
          }
          shape {
          }
        }
      }
    }
    control_ret {
      key: "MultiDeviceIteratorFromStringHandle"
      value: "MultiDeviceIteratorFromStringHandle"
    }
    control_ret {
      key: "MultiDeviceIteratorGetNextFromShard"
      value: "MultiDeviceIteratorGetNextFromShard"
    }
    arg_attr {
      value {
        attr {
          key: "_user_specified_name"
          value {
            s: "string_handle"
          }
        }
      }
    }
    arg_attr {
      key: 1
      value {
      }
    }
  }
  function {
    signature {
      name: "__inference__remote_finalize_func_202"
      input_arg {
        name: "string_handle"
        type: DT_STRING
      }
      input_arg {
        name: "remotecall_const_12"
        type: DT_STRING
      }
      output_arg {
        name: "identity"
        type: DT_INT64
      }
      is_stateful: true
      control_output: "RemoteCall"
    }
    node_def {
      name: "RemoteCall"
      op: "RemoteCall"
      input: "remotecall_const_12"
      input: "string_handle"
      device: "/replica:0/task:0/device:CPU:0"
      attr {
        key: "Tin"
        value {
          list {
            type: DT_STRING
          }
        }
      }
      attr {
        key: "Tout"
        value {
          list {
            type: DT_INT64
          }
        }
      }
      attr {
        key: "_output_shapes"
        value {
          list {
            shape {
              unknown_rank: true
            }
          }
        }
      }
      attr {
        key: "f"
        value {
          func {
            name: "__inference__finalize_func_196"
          }
        }
      }
    }
    node_def {
      name: "Identity"
      op: "Identity"
      input: "RemoteCall:output:0"
      input: "^RemoteCall"
      device: "/replica:0/task:0/device:CPU:0"
      attr {
        key: "T"
        value {
          type: DT_INT64
        }
      }
      attr {
        key: "_output_shapes"
        value {
          list {
            shape {
              unknown_rank: true
            }
          }
        }
      }
    }
    ret {
      key: "identity"
      value: "Identity:output:0"
    }
    attr {
      key: "_input_shapes"
      value {
        list {
          shape {
          }
          shape {
          }
        }
      }
    }
    control_ret {
      key: "RemoteCall"
      value: "RemoteCall"
    }
    arg_attr {
      value {
        attr {
          key: "_user_specified_name"
          value {
            s: "string_handle"
          }
        }
      }
    }
    arg_attr {
      key: 1
      value {
      }
    }
  }
  function {
    signature {
      name: "__inference_Dataset_flat_map_read_one_file_16"
      input_arg {
        name: "args_0"
        type: DT_STRING
      }
      output_arg {
        name: "identity"
        type: DT_VARIANT
      }
      is_stateful: true
      control_output: "TFRecordDataset"
    }
    node_def {
      name: "compression_type"
      op: "Const"
      device: "/replica:0/task:0/device:CPU:0"
      attr {
        key: "_output_shapes"
        value {
          list {
            shape {
            }
          }
        }
      }
      attr {
        key: "dtype"
        value {
          type: DT_STRING
        }
      }
      attr {
        key: "value"
        value {
          tensor {
            dtype: DT_STRING
            tensor_shape {
            }
            string_val: ""
          }
        }
      }
    }
    node_def {
      name: "buffer_size"
      op: "Const"
      device: "/replica:0/task:0/device:CPU:0"
      attr {
        key: "_output_shapes"
        value {
          list {
            shape {
            }
          }
        }
      }
      attr {
        key: "dtype"
        value {
          type: DT_INT64
        }
      }
      attr {
        key: "value"
        value {
          tensor {
            dtype: DT_INT64
            tensor_shape {
            }
            int64_val: 262144
          }
        }
      }
    }
    node_def {
      name: "TFRecordDataset"
      op: "TFRecordDataset"
      input: "args_0"
      input: "compression_type:output:0"
      input: "buffer_size:output:0"
      device: "/replica:0/task:0/device:CPU:0"
      attr {
        key: "_output_shapes"
        value {
          list {
            shape {
            }
          }
        }
      }
    }
    node_def {
      name: "Identity"
      op: "Identity"
      input: "TFRecordDataset:handle:0"
      input: "^TFRecordDataset"
      device: "/replica:0/task:0/device:CPU:0"
      attr {
        key: "T"
        value {
          type: DT_VARIANT
        }
      }
      attr {
        key: "_output_shapes"
        value {
          list {
            shape {
            }
          }
        }
      }
    }
    ret {
      key: "identity"
      value: "Identity:output:0"
    }
    attr {
      key: "_input_shapes"
      value {
        list {
          shape {
          }
        }
      }
    }
    control_ret {
      key: "TFRecordDataset"
      value: "TFRecordDataset"
    }
    arg_attr {
      value {
        attr {
          key: "_user_specified_name"
          value {
            s: "args_0"
          }
        }
      }
    }
  }
}
versions {
  producer: 134
  min_consumer: 12
}
